test-data/test-app/origin/lstm.pth (torch, 290583 bytes, 6 tensors)

weight f4 [512, 10]
00000000: 1fde c43e 8dd7 eabb 0917 9d3e f6c9 103e
00000010: 4f31 b83e 9d2d 723e f29f d73c 24e9 333e
00000020: cd6b 7d3d cd87 123e f664 9fbe 373b cebd
00000030: 8bdd 543c 04ac d43d 4511 03be d37b 3fbd
00000040: 7e32 feba 7d45 76bd b77d 8b3d 542e f93c
00000050: c9fd cebe 5cd3 27be 0c3f adbc 53f0 03be
00000060: a177 2bbd 91a4 8dbd 933d 93bd 31bd 1a3c
00000070: ed27 18bb ef35 c4bb e626 0c3e 4a54 323d
00000080: 4ff6 573d 5799 033d a098 953d 7f8e 273d
00000090: 55b5 9c3d 9cde 7e3d 6eaa 523d 7c39 63bd
000000a0: 945d 783d 0ac8 373e 03ea d43e aa26 903e
000000b0: 7c7e 3e3e e18a 933e 45df 8d3e 5482 f43d
000000c0: e5d8 f63e 95c7 8c3d 7f01 c53d 6013 993d
000000d0: c8c6 703d ba60 833d f535 ce3d 84de 153e
000000e0: 6370 e53c 0f02 0d3d b421 ddbc ce74 7bbc
000000f0: d654 2a3e 2a68 053e add7 a6bd 986f 143e
00000100: 808c 293d b6c3 dd3c be37 d63d ed8f 9e3c
00000110: 58b0 fabc 5ebb 673d b360 1cc0 1822 5fbf
00000120: f758 753e 8a2e 34c0 56ce b8bf acef 23c0
00000130: 7c47 1a3f 3055 303e a256 a33e c4e5 f53d
00000140: 429e 02bf 2428 eabd fa3a 8b3e b826 90be
00000150: a519 583d 0fe7 0fbd de19 67bd 2b6b 24be
00000160: b407 31be 1897 c0bd 5a2e 86be 68cb c4bd
00000170: 2026 febd a3cb e6bc c054 77be 5eef 1f3e
00000180: 6456 2bbe 90f0 3dbd ae3c a1bd 3525 11be
00000190: 3e83 cabd 9ba4 12be ee9c caba 717f 50bd
000001a0: 30a1 3dbd 42ca 47bd a4ef 75bd 64a1 073c
000001b0: 26c6 a43b 6f3b 423c 4d28 43be 15bd 84bd
000001c0: 5521 9fbb bb1e 32be ad58 883a 9de8 cebd
000001d0: c8fb a0bd aec9 be3d 8155 0f3d 5147 093c
000001e0: 5813 38be 0f3b 3dbd 701a 07be 7d2c 2abe
000001f0: 1ae7 96bd 8ba8 3cbe b548 f7bc d0b1 aebd
00000200: 20ca 5c3d dc53 183d f9e8 7b3c 4159 96be
00000210: aff3 52be acb7 3fbe 54ce 95be 4430 b7be
00000220: 77d8 06bf bf77 e6be 68aa b2be 8730 42bd
00000230: 8abc 93be 2182 3abd 153a 05be 7cf7 2bbe
00000240: 6cf1 36be ae45 53bd 647e d3bd a369 663d
00000250: eb23 9ebd 4e18 073e 68be f93d fb21 a33d
00000260: e51f 663d b7b2 923d 690d 293d c94b 393d
00000270: a8fa bd3d 4da3 2b3d 8b55 323d b6df 943d
00000280: 9007 60bf 5ea0 183f a8eb e83f 1f93 e03e
00000290: a746 ac3f fc22 b13e bd47 3f3f 139b c73d
000002a0: 9095 f0be d15e 77be 27bc 19be 19d7 32bc
000002b0: 4b97 4fbe adfa 04be 693d 4cbc ce32 3f3d
000002c0: 4d8d a9bd 3254 20bd 2269 97bd eaea 7abd
000002d0: 54dc 4240 e9bb 0f3f 995a c13e 169c 0f40
000002e0: e3cb 913c e1f4 2d3f afe5 0240 5890 abbd
000002f0: d171 e43d dd69 14bc 6ad0 31be 9c67 60bb
00000300: 20ff e93a dfe7 49be 56d7 08be 733f e8bd
00000310: e6a0 debd 8ce1 85bd c24f 04bd a1bd 6ebd
00000320: b5fc 0e3e 2944 b63d d2a0 283d b1d0 c7ba
00000330: d241 af3c a01f 903c 7ab6 053c 408b 2f3c
00000340: 6969 28bd e146 233d 7fa9 373e 38af 9f3d
00000350: 0037 613d f172 423e 9ddb 843d 3a1b 193d
00000360: 3c46 d63d cba1 9b3d b126 153d c514 963d
00000370: 44c4 6ebe d802 ae3d cca8 0f3f 949f 433f
00000380: c1b9 4d3f 2321 313d a443 db3e d6bc a33e
00000390: ceb5 fa3d 61b6 0c3e e477 33be 07a0 ccbd
000003a0: 8c4a 9bbd c872 9bbd 2586 633d 87f5 c93c
000003b0: daf0 b9bd 91fb 78bd 450e 84bd 24a8 f83a
000003c0: ea22 f93d e1ee 8f3c be5d 0b3e 0e02 6e3d
000003d0: 77f4 173d 7b73 5a3c 333b b4bc 63cd a7bb
000003e0: 7c27 023d ce72 1fbc 6306 74bf 15cf 85bf
000003f0: e4f2 e5bf 5329 5ebe f0c7 7ebd 186a 5bbf
0.38450715 -0.007166809 0.30681637 0.14139542 0.3597512 0.23650213 0.026321385 0.17569405
0.061870385 0.14309616 -0.31131715 -0.10069888 0.012992273 0.10384372 -0.12799557 -0.046748947
-0.001939371 -0.060124863 0.068110876 0.030417599 -0.40427998 -0.16389221 -0.021148227 -0.12884645
-0.041862134 -0.06916154 -0.07189479 0.009444521 -0.0023217157 -0.0059878747 0.13686714 0.043537416
0.052725133 0.03212866 0.073045015 0.04090738 0.07651774 0.062224016 0.051432066 -0.055474743
0.060636118 0.17947403 0.41584787 0.28154498 0.18602937 0.28816894 0.27709404 0.119389206
0.48212352 0.06874005 0.09619426 0.074743986 0.058783323 0.064149335 0.10068885 0.14635664
0.028007692 0.03442579 -0.02699361 -0.015347673 0.16633925 0.13028017 -0.08146606 0.14495695
0.041393757 0.027070861 0.10459851 0.019355739 -0.030601665 0.05657517 -2.443402 -0.871614
0.23959719 -2.8153405 -1.4437969 -2.5615034 0.60265326 0.17219996 0.31902033 0.12006715
-0.5102273 -0.114334375 0.27193433 -0.2815454 0.05275883 -0.035132464 -0.056421153 -0.16056506
-0.17288095 -0.09403819 -0.26207238 -0.09609109 -0.124096155 -0.028173273 -0.24153423 0.15618655
-0.16732174 -0.046371996 -0.07872902 -0.1417435 -0.09888314 -0.14320605 -0.0015458146 -0.050902788
-0.0462963 -0.048776872 -0.060042992 0.008278225 0.005028504 0.01185499 -0.19058342 -0.06481377
-0.0048562684 -0.17394535 0.0010402404 -0.10102961 -0.078605235 0.09315811 0.034993652 0.00837882
-0.17976129 -0.0461989 -0.13193679 -0.16618533 -0.07368298 -0.18423669 -0.030186037 -0.08530009
0.0539037 0.03718935 0.015375369 -0.2936497 -0.2060077 -0.18722409 -0.29258978 -0.3577901
-0.5267405 -0.45013234 -0.34895635 -0.04740956 -0.2885478 -0.045534257 -0.13010438 -0.16793627
-0.17865533 -0.051580124 -0.103268415 0.056253087 -0.077216946 0.13192865 0.1219452 0.07965466
0.05618276 0.071629934 0.041272555 0.04523829 0.092763245 0.041903783 0.04353861 0.07269232
-0.8751154 0.596197 1.8196917 0.43862244 1.3459061 0.34597003 0.7471884 0.09746375
-0.46989107 -0.24157263 -0.1501318 -0.010915541 -0.20272557 -0.1298625 -0.012465813 0.04667931
-0.08278904 -0.039142795 -0.07393099 -0.061259188 3.0446978 0.56146103 0.37764433 2.2439017
0.017797416 0.6795178 2.0452688 -0.08377141 0.11154521 -0.009058443 -0.1736466 -0.0034241443
0.0017852522 -0.19717358 -0.13363394 -0.11340227 -0.10870533 -0.0653716 -0.032302625 -0.058286313
0.13963588 0.08899719 0.041168995 -0.001524469 0.02139369 0.017593205 0.008161182 0.010714352
-0.041116152 0.039862517 0.17935751 0.07797092 0.054984093 0.18989159 0.064872004 0.03737948
0.10462615 0.07599219 0.036413852 0.0732818 -0.23317057 0.08496636 0.5611694 0.7641537
0.8036156 0.043244492 0.42825043 0.31980008 0.12241708 0.13741447 -0.17526203 -0.0999146
-0.07582578 -0.07590252 0.055547852 0.02465321 -0.09079142 -0.060786787 -0.06448034 0.0018971008
0.121648625 0.017569961 0.13609979 0.05810743 0.037098374 0.013333197 -0.022000885 -0.0051209196
0.031775936 -0.009731961 -0.95322245 -1.0453821 -1.7964749 -0.21695451 -0.062202394 -0.8570876

bias f4 [512]
00000000: f85e 6ebd 61b7 423d f2a8 dcbc f651 823d
00000010: c71a 84bc 7fed 493c 5b67 2b3d 820c 7dbe
00000020: b4cf 2a3d f356 083d 26d4 c53c 8769 5dba
00000030: 3094 b93d a5b3 403d 8a13 c33c 206c b3bc
00000040: 7af0 8fbc 7f57 c8bd b223 d93c e5eb 683c
00000050: 752c d93d 1ad1 863d b380 743d 4521 a8bd
00000060: 7415 78ba 970f e23d e00b 2a3e e342 04bd
00000070: 9bcf 743d de34 2d3e 8e0c 6cbd 51ed 443d
00000080: 2969 94bd e917 6c3d 10d4 4fbd 675d 723b
00000090: 01cf aabc 3412 103e d9bd e3bc 70ee c6bd
000000a0: 249b 38bb bddb 09be 3c75 663d 2d55 17bc
000000b0: d743 91bd 2387 16bb 7762 af3d de8b b73b
000000c0: 2cb6 03be fc60 da3d 71b1 d43d 389f b8bd
000000d0: 7868 31bd 3ad7 1c3d b17e c1bc 2d75 c73c
000000e0: 3b58 0bbc b6a1 a73d 016d 39bd 3619 2d3c
000000f0: fd08 303d 2764 bebd 5d13 653d ad16 0e3d
00000100: 9b70 053c 2af9 c1bd c4ad fdbd f72a 9cbd
00000110: 58fd 86bd 9b04 28bd 992c 51b9 1b66 603c
00000120: 8da9 163e c9fd b83d 50ea 62bd 249f 5c3d
00000130: eb87 ee3c 0b98 8f3d 22a1 e3bc 0f4b 623d
00000140: c6ba d1bd 5e8e 5dbc 7d43 9cbd 8700 aebd
00000150: 51ab 01bd d612 bfbb 542c 703d 9b72 553d
00000160: e32e 2ebd f57e 923d 1055 81bb 1216 cabc
00000170: d5ee 1dbd c9f3 c33d 8198 d03d dd3b 4a3d
00000180: 3e8b 563d 174f f2bd eb36 bf3c b168 19bd
00000190: b135 143e 48a5 6b3d 3ad8 973b 256a 1bbd
000001a0: 8174 abbd ad32 83bc 1873 c8bd 45db 1a3e
000001b0: 42e6 37bd a73f 6bbd a7f0 573d ec1a 8b3d
000001c0: bd2a d2bd 7d6f 9b3d 1a98 873d 62ed 6ebc
000001d0: 7bd5 5b3d 29f6 85bd e9cf 66bd 9393 5b3e
000001e0: 28bd 7c3d 69f5 0e3d 19d8 c53b 1209 94bc
000001f0: 2d14 09bb 5bd4 66bd 392e b73d 670c e0bd
00000200: d50e da3d cf14 353d 5e24 ad3d 7163 c83d
00000210: ecc5 18be 34d2 28bd 33fc 5bbc 5d42 4a3e
00000220: 215d b9bb 36cf c63b 5019 9ebd e679 803c
00000230: 527e de3d 12e5 1ebc 2d4f 1a3d 4fd0 eebd
00000240: 5d5b 053e dbd8 4fbd 0da9 953d 46c7 38bd
00000250: 39f3 243d 44c2 5e3d 2633 5e3e a42d 5e3d
00000260: 90d8 de3b d709 e83d 5c23 b83c 0452 ccbc
00000270: b97a a73c e57a 023e 5328 5d3c b4c9 8dbd
00000280: 38a2 423d 90fa f13d 09b6 dfbd 18f9 653d
00000290: dd6a 603b 9b9e a23e 990a 923d 88ea 18bd
000002a0: 1773 bd3d ec32 7f3e 78b1 aebc 1acc 2d3e
000002b0: 42c4 a3bd 66a7 7bbd 3328 9cbc e514 8fbd
000002c0: 29cd 823d 1c6d b63d f30b d23e 4260 b7bd
000002d0: f26f 123e 958a 9b3e 6f7a edbd 6f79 e43d
000002e0: 8c55 6e3e 8cc2 77bd c488 bc3d 57cd 983d
000002f0: a139 833d 4231 1a3e 967e d43c f053 473e
00000300: 6544 b53d 2a3b 5a3e c4b4 ca3b e924 123c
00000310: d60c e93d fb9d ccbc 5368 c73d 0786 0e3e
00000320: 8dbd 3e3e 5d45 e43d 1cea 0d3d e80d 9c3d
00000330: 1fff 0d3e b5e5 fdbc 8d5e 03bd ae31 28bd
00000340: de99 ac3e 0403 ea3d c92a 4abc c4b4 a6bd
00000350: e0fc e8bc 29c0 f7bd c847 5a3b 77ea 403d
00000360: eba2 ea3d 8560 8ebd 01a5 9b3d 808a 313e
00000370: 70b0 053e 90c1 3f3b fa09 b2bc 00e9 df3c
00000380: 0c33 2ebc 461d 5c3e 2247 a93d 2497 243c
00000390: 8b65 033d f87c f73e 1010 ab3d f36a ab3d
000003a0: 1606 953d 8493 77bd 3c81 953d 8524 cebd
000003b0: 387c 98bc c6d2 4e3e 0ead 1b3e c148 cebc
000003c0: 1893 d33d 4c41 34bd ebff 863c c02d a73d
000003d0: 080c 393d d7ce 223e 28a3 77bb b6e0 953d
000003e0: 30a3 bfbc f372 01be 2977 6f3d 4946 3a3e
000003f0: 2e4b 72bd eb14 9bbb c8af 1ebd c778 a43d
-0.058196038 0.047538165 -0.026936028 0.06363289 -0.01612605 0.01232469 0.041846614 -0.24711803
0.041701987 0.033286046 0.024149012 -0.0008446206 0.09061468 0.047046322 0.023813028 -0.021902144
-0.017570723 -0.097823136 0.026506279 0.014216398 0.10604183 0.06582852 0.05969305 -0.08209471
-0.0009463646 0.1103813 0.16606092 -0.03229035 0.0597683 0.16914698 -0.05762916 0.048077885
-0.0724662 0.05763999 -0.050739348 0.0036981942 -0.02085066 0.14069444 -0.027800487 -0.09713447
-0.0028168643 -0.1346273 0.056264147 -0.009236616 -0.070930175 -0.0022968731 0.085637026 0.0056013903
-0.12862462 0.106630296 0.10385407 -0.090147436 -0.04331252 0.038291194 -0.023619981 0.024347866
-0.0085049225 0.08185141 -0.04526997 0.010565093 0.042977322 -0.09296446 0.05592667 0.034689594
0.008144523 -0.094713524 -0.12386659 -0.076253824 -0.0659129 -0.041020017 -0.00019948407 0.013696219
0.14713116 0.09032781 -0.05539924 0.053862706 0.029117545 0.07011422 -0.027786795 0.055247363
-0.10240702 -0.0135227125 -0.0763006 -0.08496194 -0.03165752 -0.005831103 0.058636025 0.05211125
-0.042525183 0.071531214 -0.003946908 -0.024668727 -0.038557846 0.09567983 0.10185338 0.049373496
0.052378885 -0.118314914 0.023341617 -0.037453357 0.14473607 0.05753067 0.0046339305 -0.037943024
-0.08371831 -0.016015375 -0.097875774 0.15122707 -0.044897325 -0.05743375 0.05271974 0.06792244
-0.10262058 0.07589624 0.06620808 -0.014582964 0.053670388 -0.06541092 -0.056350622 0.21443014
0.06170383 0.03490201 0.0060377237 -0.018070731 -0.0020916567 -0.05635486 0.08944363 -0.109398656
0.1064736 0.044209298 0.08454202 0.09784592 -0.14919251 -0.04121609 -0.013426828 0.19751878
-0.005656854 0.006067182 -0.07719672 0.015683126 0.108639374 -0.009698169 0.037673164 -0.116608255
0.13023134 -0.05074392 0.073076345 -0.045111917 0.040271018 0.054384485 0.21699199 0.054242745
0.0068007186 0.11330002 0.022477798 -0.024941452 0.02044426 0.12742193 0.013498384 -0.069232374
0.047517985 0.11815369 -0.10923392 0.056145757 0.0034243383 0.3176163 0.071309276 -0.03733304
0.09250467 0.24921769 -0.021324858 0.1697239 -0.079964176 -0.06143894 -0.019062137 -0.06986407
0.063867874 0.0890753 0.41024742 -0.089539066 0.14300516 0.30379167 -0.11595618 0.11155974
0.23274821 -0.06048827 0.092057735 0.074610405 0.06407476 0.15057853 0.025939267 0.19465613
0.08850936 0.21311632 0.0061860997 0.008919933 0.113794014 -0.024977675 0.09736695 0.13918315
0.18626995 0.111460425 0.034647092 0.0761984 0.13866852 -0.030993322 -0.032072593 -0.041063003
0.3371114 0.114263564 -0.012339302 -0.08139947 -0.028440893 -0.120971985 0.0033306945 0.047098603
0.114568554 -0.069520034 0.07599831 0.1733799 0.13055587 0.002925966 -0.021733273 0.027332783
-0.010632288 0.21495542 0.08265521 0.0100458 0.03207926 0.4833753 0.08352673 0.08370008
0.072765514 -0.060443416 0.0730004 -0.10065559 -0.01861392 0.20197591 0.15202734 -0.025181176
0.1033079 -0.044007584 0.016479453 0.08163023 0.04517749 0.15899216 -0.0037786458 0.07318251
-0.023393244 -0.12641506 0.05846325 0.18190874 -0.05915373 -0.004732718 -0.038741857 0.08030849

weight f4 [512, 128]
00000000: 4b62 54ba f96c 5f3a cab1 86bd afcf 093e
00000010: 6c5f 04be 9c7a 66bd b47b a8bc b66b 043d
00000020: 6cf8 fbbc a4d4 7d3c 198b 7fbd 56b9 493d
00000030: cf1c 8bbd fff2 01bd 35ed 8d3d c381 cf3d
00000040: f893 b7bc 9b0a d13c 9b64 e2bd 40a1 12bc
00000050: d303 a3bd 537e a8ba 8560 eabd 0138 abbd
00000060: ed48 873d b658 c5bd 272e 463d d9a4 9cbc
00000070: ec56 f8ba e4da c4bd ce1e 943c 050c 09bd
00000080: e3ec eabc 23fe b5bb 1be3 c1ba 8712 b93c
00000090: 2144 8dbc d96e 95bd 9d87 cbbc c933 8bbd
000000a0: 13cf 0d3e f91b 653c 53d1 253d efd8 3a3d
000000b0: 21f0 5ebd f48b 723c 5d88 823d 9ce1 8dbd
000000c0: 6468 a5bd 540d cf3d c09a f3bc 2c01 98bc
000000d0: 3732 8f3d 42da 93bb 8e49 11bd ac96 ed3b
000000e0: 7297 05bc ff5c 363d 01dc d2bd d98c 5bbd
000000f0: da81 073c 4676 093d 726d 5ebc 0e50 7dbd
00000100: 0a37 a83d 68de 3b3d 036e 28be 1e1f e0ba
00000110: cd67 283d 5834 63bd 8415 b4bd 2207 d53d
00000120: eecd bdbd a483 73bc 073d d0bc 627b e03d
00000130: a805 bdbd 2a8b f6bd bf03 a93d 7ef5 16bd
00000140: 57e0 fd3d 5c6c 34bd 3fa6 89bd 656f ef3c
00000150: 5b39 333d 8256 b93c 9745 c93d 195d 84bc
00000160: 8212 c5bc ef46 22bd 943a d63c 7a48 f23b
00000170: bdff fd3c 2d23 08bd ca14 dbbc c071 59bc
00000180: 6902 a73d f971 963d 30b6 33bd 7803 e23b
00000190: 9e62 3bbd 9c78 e53d 5f75 5b3d 3496 7fbd
000001a0: 8ea2 d6bc a669 46bd 686b 8d3d 3f51 67bd
000001b0: 85e7 883c d670 893d 1cea 823c 873e 47bd
000001c0: 7d54 ef3d c7c3 75bd 558f 233d f403 b53d
000001d0: ca93 1fbe fedf e5bd 7036 113d efbf a23c
000001e0: 06ee eb3c 881c f83c 6455 8fbd 8fa6 b03b
000001f0: 40d5 9ebd c2e2 4cbc 7e1f 5e3d 9503 8bbc
00000200: 7f0c c53d 3194 0a3d 9c39 5b3b 0d9d eebc
00000210: bd38 22bd 12c3 29bc 5988 7a3c 215a 73bd
00000220: 5845 7cbd 4c32 b2bd a6d2 393c 41d9 36bd
00000230: 4cd2 fa3c 196f a939 fb0f 393d c107 68bd
00000240: bd0b 643d 7461 d53c ea19 8f3d 2a90 fdbc
00000250: 5c67 61bd b0dd 15bd 3a5e 4dbb d5f6 f03c
00000260: b403 6d3c 7bb5 803c 5c9a 2ebd bafe 9ebd
00000270: cf66 b1bc 892e 8ebb b031 9abd 4c7d a0bc
00000280: 6457 883b be53 813d 69fe 54bd 5dd2 1d3d
00000290: 0548 bcbc a1cf cdbd 1ccd b1bd 2d71 0b3d
000002a0: c868 a43d 6364 f3bb 1322 cfbc c3e1 523c
000002b0: 0dfc 853d e56f bcbc 2035 ef3c 2d8e e0bc
000002c0: 80ce 9d3d 9902 e5bc 783d 16bd 41e1 6dbd
000002d0: e195 413c e22f c8bd ff74 bcbd da20 6a3d
000002e0: da24 ce3c 80ea b7bd 454d e63c 92c2 1ebd
000002f0: e449 4bbd 2cb7 b4bc 71c8 aabd 0591 96bd
00000300: b4d1 72bb a339 5bbd 717e 9e3c 1240 0bbd
00000310: 39c9 f9bb 6706 303d 820a c93c c1d3 87bd
00000320: d1e6 2a3d 3806 013d 4f3d 883d 0277 5a3c
00000330: 7430 d7bc 6f9b 3d3c e05c aa3c 5261 c5bd
00000340: db49 d33d e9cd 533d 738d b1bd 15db 623d
00000350: 34bc b9bd b33e cb3c 4276 a5bc 3ce4 00bc
00000360: e577 84bd 24d5 51bd 84a4 0b3d 19ad 203d
00000370: aa51 ac3d 5895 9fbd 626b 83bc 7c2f 04bd
00000380: 9c51 e33c 235d a43d a473 de3c fb67 aa3c
00000390: 9253 a73c 5248 63bd 5c24 a33d af08 d9bc
000003a0: 4322 bdbd ea43 263d 385c 94bc f686 90bd
000003b0: a919 323d 23f4 f63b d3e2 91bc 9e5c be3d
000003c0: 8db4 64bd c708 20bb 7aca 49bd 5fa9 7fbd
000003d0: 9e08 8dbd 2512 6b3d 51cf 9e3d 86d9 083d
000003e0: 78c0 3f3c 8ffb ba3d e8c3 a33d 5f96 b6bd
000003f0: 9412 aa3d 3562 533d 0a6f 4c3d 09a2 353a
-0.0008101805 0.0008523013 -0.06576879 0.13458131 -0.12927026 -0.056269273 -0.020566799 0.032329284
-0.030758105 0.015492592 -0.062388513 0.049249016 -0.06792604 -0.03172588 0.06930009 0.10132172
-0.022409424 0.025517752 -0.11054345 -0.008949578 -0.07959714 -0.001285503 -0.11444191 -0.08360291
0.06605706 -0.09636061 0.048383858 -0.019121574 -0.0018946803 -0.096120626 0.018081095 -0.03345873
-0.02867741 -0.005553977 -0.0014792414 0.022591842 -0.0172444 -0.07296533 -0.024844939 -0.067969866
0.13848524 0.01398372 0.04048283 0.04561704 -0.054428224 0.014803875 0.063736655 -0.06927797
-0.080765516 0.10109964 -0.029736876 -0.018555246 0.069919996 -0.0045121023 -0.035470538 0.0072506275
-0.008153783 0.04452228 -0.10295869 -0.05360112 0.008270705 0.03356006 -0.0135758985 -0.061843924
0.08213623 0.0458664 -0.16448216 -0.0017099117 0.041114617 -0.05546984 -0.08793166 0.10401751
-0.092677936 -0.014862929 -0.025419725 0.109610334 -0.092295945 -0.12038262 0.08252668 -0.036855213
0.12396305 -0.044048652 -0.06721162 0.029227922 0.04375587 0.022624258 0.09827726 -0.016157674
-0.024056677 -0.03961843 0.02615098 0.007393894 0.031005735 -0.03323667 -0.026743311 -0.013271749
0.081547566 0.07345957 -0.04387492 0.006897386 -0.045748346 0.11204645 0.05357873 -0.062399104
-0.026200559 -0.048440598 0.06905252 -0.056473967 0.01671196 0.06710975 0.015980773 -0.048643615
0.11686037 -0.06000116 0.039931614 0.088386446 -0.15583721 -0.11224364 0.035452306 0.019866912
0.028800022 0.030287042 -0.06998709 0.005390949 -0.07755518 -0.012505235 0.054229252 -0.016969481
0.09621524 0.033832733 0.0033451086 -0.029127622 -0.03960489 -0.01036145 0.015291297 -0.059412125
-0.06158957 -0.087009996 0.011341726 -0.044640783 0.030617855 0.00032316966 0.045181256 -0.05664802
0.055675257 0.026047446 0.069873646 -0.030952532 -0.05503021 -0.03658837 -0.003133668 0.029414574
0.014466215 0.015711537 -0.042627677 -0.07763429 -0.021655468 -0.0043390435 -0.075290084 -0.019590996
0.0041608084 0.06314801 -0.052000437 0.038530696 -0.02298356 -0.10049368 -0.086817 0.03404348
0.08027798 -0.0074277385 -0.025284803 0.012871209 0.065422155 -0.023002574 0.029200137 -0.027411545
0.077054024 -0.02795534 -0.036679715 -0.058076147 0.011815519 -0.09774758 -0.09202003 0.057160236
0.025164057 -0.08980274 0.028113017 -0.038759775 -0.049631014 -0.02206 -0.083390124 -0.07351879
-0.0037051262 -0.053521764 0.019347401 -0.03399665 -0.0076228646 0.042974856 0.024541143 -0.06632186
0.04172403 0.03150007 0.06652319 0.013334038 -0.026268221 0.011572703 0.02079624 -0.09637703
0.10316821 0.051710043 -0.086695574 0.055384714 -0.090691 0.02481017 -0.020197991 -0.007866915
-0.064681806 -0.051228657 0.03409244 0.03922758 0.08414014 -0.07792157 -0.016042415 -0.032271847
0.027748875 0.08025577 0.027154751 0.020801535 0.020425592 -0.055488892 0.079659194 -0.026493398
-0.092350505 0.04059211 -0.01811038 -0.07056992 0.043481503 0.0075364276 -0.017808354 0.09295009
-0.05583625 -0.0024419294 -0.049265362 -0.062417384 -0.06886409 0.05739035 0.07754386 0.03341057
0.011703603 0.09130012 0.079963505 -0.089154 0.08304325 0.05160733 0.049910583 0.0006928747

bias f4 [512]
00000000: 7912 c3bd 9428 c7bd ca2d bc3d 4ebb 583d
00000010: cbc7 0a3d ce96 6cbd d793 6ebd 51fd 0dbe
00000020: 2193 a6bc eba3 983d e724 5d3c 5f4b afbd
00000030: 7497 243d a3fd df3d d229 273d 1936 9f3d
00000040: 4f4f 293c c6f7 9fbd b77f 34bd 9130 8abd
00000050: c9c7 0bbc 7e62 973c 6ac7 833c caa1 05bd
00000060: f90c b83b 5992 e93c eefc 313e 8565 69bd
00000070: 3b19 073d 1081 2d3e f96d ca3c 3b17 e83c
00000080: a0ba 93bd 542c b8bd 0438 6cbd 4851 d63b
00000090: 545d 1d39 de7d 053e dae1 3c3d 81fe 5dbd
000000a0: 34d8 bc3d f5c2 4ebe f754 45bd 183f b1bc
000000b0: 6644 93bd d3ca f0bc a07d 7ebd 948b 10be
000000c0: 02b0 cbbd d211 e93d 4f5b b63b 18eb 0b3c
000000d0: 5850 f93b 409d 773d c561 823b 91e9 25bd
000000e0: cbe9 0a3d a04f 91bd 2a46 793d c0cb 2d3d
000000f0: f91b 87bd 8675 283c e264 b23d c601 7fbb
00000100: 089d 14bd c044 f7bd 1bf1 eebb 801e ca3c
00000110: 310e bdbd cea9 1c3c 689f 3b3c 109c 5fbd
00000120: 54f2 7abb 982d af3d a2eb 8a3d d0a8 bc3d
00000130: 49d0 ae3d d107 81bc 539f 233c cc3a e13d
00000140: 541c eabd e42e 913d 25ec bd3d 2523 2a3d
00000150: 7c3f 86b9 ea32 a4bd 7406 86bc 6a56 073e
00000160: 0467 c9bd b315 7b3d 2c61 a33d 0ecb 0fbd
00000170: c962 03bc d459 fc3c 6313 cd3d 0266 bc3d
00000180: 82d0 af3d e29c 66be 6233 a43d e390 ee3c
00000190: 1a61 133e a26f 9bbd db46 a43c 4fb9 bebc
000001a0: 14ae 65bc fa6d 133c 717f 1b3d e19f 3a3c
000001b0: 0846 89bd a302 81bd e676 2a3e 7402 b3bc
000001c0: bc6e 8fbd ed59 a5bd 3b31 dabc 4d5d 2bbc
000001d0: a6fc a5bc 5ce6 33bc 24c1 61bd f091 693e
000001e0: ae7b aa3d f232 51bd 02f3 a9bc 5920 d63c
000001f0: 8117 5fbd 8e33 9d3d 1826 8dbc f9a7 043d
00000200: 912c 763d 15a0 643d db96 be3d ad58 223d
00000210: b058 bdbd e01f aabd 8591 483d 2eab 4d3e
00000220: 2271 31bd 69a0 c3bd ac5c 47bd 8245 5ebc
00000230: 4938 993d f286 903d f3f9 453d bef6 24bb
00000240: 8fba 4c3e 9edb 37bc ef3d 983b 283e b93d
00000250: acf8 403d 2608 66bd d382 6c3e 595c 683d
00000260: 1d00 b6bc 7ae2 7c3d d043 803d 59ca d83d
00000270: 9aa4 b23c ed00 423e f2b4 f53c bb10 fdbb
00000280: 8a4c 163e e486 cc3d 367b 38bd 251c e53d
00000290: 56aa a83d 2174 a93e 6e2f 083c 212e e03c
000002a0: f9e4 3c3c a0db b53e 2bff ae3d d065 863d
000002b0: f2cf 54bc bfb6 a93d 8047 6a3d 3507 813c
000002c0: 786b e43d 8953 1b3d 9595 d23e 517c 76bd
000002d0: 71e3 e43d 5714 8d3e dcad b3bd 02ee 5a3d
000002e0: 4dcd ca3d 7eec 943d fca1 f23c acab 2b3d
000002f0: a860 5d3d 60e4 353e 59bb 52bd 169e 013d
00000300: d749 5fbd 1069 bd3e fbfc b63d 2d76 a83d
00000310: bbd2 ee3d 3084 443d fb97 873d d327 033c
00000320: f5ff 2d3e ed4d 783d 4886 513d 587a 7d3d
00000330: 0b88 063d 0221 dbbd 0fc7 b7bc e539 a3bd
00000340: 5215 f93e dc1f 613d 70c0 723d 26e8 a6bd
00000350: 818b 003e e4c4 c9bd f2de 86bd ec81 2fbd
00000360: df9f aa3d 609a 313d 2450 56bd 8db2 0f3e
00000370: 396f f93d b1b8 c0bd a26a 6ebd 1e72 113e
00000380: 1beb bb3d 0e12 113e 2dec c63d 474e db3c
00000390: 80d4 ed3b 0fc3 003f b915 31bd 05b9 d13d
000003a0: a78b d03b 0b22 d4bd 600e 803c cea4 133b
000003b0: f541 7bbc ef7c 023e 1242 903e c86b d93d
000003c0: 3539 bb3c cca5 f6bc 408d 143d 5664 383e
000003d0: 301d e03d ee8e 933d e106 87bd 6f7c 213e
000003e0: 4697 8bbd b188 dabd 8573 c33d 192a 3b3d
000003f0: c7f9 96bc 6ed7 43bd d92b a8bd 297b 1a3e
-0.09525008 -0.097245365 0.09188421 0.052913003 0.033881944 -0.057761006 -0.05824646 -0.13866164
-0.020333828 0.0745314 0.013497568 -0.08559298 0.0401835 0.10937049 0.040811367 0.0777399
0.01033385 -0.07810931 -0.04406711 -0.067475446 -0.008531519 0.018479582 0.016086299 -0.032624997
0.005616781 0.028512167 0.17381641 -0.056981582 0.032983046 0.16943765 0.024710642 0.02833139
-0.0721333 -0.0899283 -0.05767061 0.006540451 0.00015007454 0.13036296 0.046113826 -0.054197792
0.09220925 -0.20191558 -0.048176732 -0.02163653 -0.0719078 -0.02939359 -0.062131524 -0.14115745
-0.0994568 0.11380352 0.005565084 0.008539937 0.0076084547 0.0604527 0.00397894 -0.04050595
0.03391437 -0.070952654 0.06085793 0.04243064 -0.06597132 0.010281926 0.08710648 -0.003891097
-0.03628257 -0.1207366 -0.0072919256 0.024672747 -0.092312224 0.009561969 0.01145158 -0.054592192
-0.0038291411 0.08553618 0.06783225 0.09211886 0.08535821 -0.015750797 0.009986716 0.10997543
-0.114311844 0.07089022 0.092735566 0.041537423 -0.0002560577 -0.080175236 -0.016360499 0.13216558
-0.09834102 0.06129999 0.079775184 -0.035105757 -0.008019158 0.030804552 0.10013463 0.09199144
0.085846916 -0.22520784 0.08017613 0.029121822 0.1439251 -0.07589652 0.020053318 -0.023281721
-0.014018554 0.008998388 0.037963334 0.011390657 -0.067028105 -0.06299331 0.16646919 -0.021851756
-0.07003543 -0.080737926 -0.026634803 -0.010459256 -0.020262074 -0.010980215 -0.055115834 0.22809577
0.08324371 -0.051073976 -0.020745758 0.026138471 -0.054465774 0.07675849 -0.017230079 0.032386754
0.060101096 0.05581673 0.09306117 0.03963535 -0.092454314 -0.08306861 0.048966903 0.20084831
-0.043320782 -0.0955208 -0.048672363 -0.013566377 0.07481439 0.07056989 0.048334073 -0.0025171484
0.19993041 -0.011221794 0.004646055 0.090450585 0.047112152 -0.056160115 0.2309678 0.056728695
-0.02221685 0.061739422 0.06262934 0.1058547 0.021807004 0.18945666 0.029993508 -0.0077229417
0.14677635 0.09986666 -0.045039378 0.11187009 0.08235614 0.33096412 0.008312089 0.027365746
0.011529201 0.35519123 0.08544763 0.06562388 -0.012989031 0.08286809 0.057197094 0.015750507
0.111533105 0.037921462 0.41129747 -0.06017715 0.111761935 0.2755458 -0.087733954 0.05344964
0.09902439 0.0727167 0.029618256 0.041911766 0.054047257 0.177629 -0.0514482 0.031644903
-0.05451378 0.3699422 0.08934971 0.08225665 0.116612874 0.047977626 0.06620785 0.0080051
0.16992171 0.06062119 0.05115345 0.061884254 0.032844584 -0.10699655 -0.022433786 -0.07970027
0.4864908 0.054962024 0.059265554 -0.081497476 0.12553217 -0.09852007 -0.06585492 -0.042848513
0.08331274 0.043360114 -0.05232252 0.14032955 0.12179417 -0.09410227 -0.05820716 0.14203689
0.09175702 0.14167044 0.09713016 0.026770724 0.007257998 0.50297636 -0.043233607 0.10240368
0.006364304 -0.10358056 0.015631855 0.0022528651 -0.01533555 0.12742971 0.28175408 0.10616261
0.022854427 -0.030108355 0.03626752 0.18007025 0.10943067 0.07204996 -0.06593109 0.15770124
-0.068159625 -0.10670603 0.09543518 0.045694444 -0.01842965 -0.04781287 -0.08211488 0.15086044

weight f4 [2, 128]
00000000: d23a 38bd bda5 4ebc 9795 a3bd 2bcc 103e
00000010: d0f3 f6bd e516 8bbc 9e67 7abc e84d 433d
00000020: 5766 583d 1c5d 3bbd bd29 903b 9a9a ce3c
00000030: 9013 50bc 8777 dfbc 8eb9 a2bd 0cc7 4f3d
00000040: 9c1d 39bd 6aa0 c5bd 7b1c 11bc 46e5 8abd
00000050: 0cae 18be 9614 8abb de24 663c fa9f 0dbd
00000060: 8291 b13d 04c0 32be 1ca9 fbbd 91ea d7bd
00000070: 5535 ac3c 7a16 7c3d fb55 b5bd b670 17be
00000080: e36a 4abe ffbe 173e d8fc 0b3d f8aa eabd
00000090: b312 56be eebe 29be 685d 09be 1fc4 613e
000000a0: 2145 243e 0461 1b3d 1e18 063e 4e2b aebd
000000b0: cb6a 993d 5447 be3d bbd3 32be 724f cabd
000000c0: 1181 0cbe d91b c6bd a057 10be ffae ea3c
000000d0: b62d 8ebc 9acf 8f3e 85a7 343d 2c92 a73d
000000e0: 7cdc 2cbd 574d 02be 97d6 cfbd bd98 eebc
000000f0: b978 8e3d 4516 073e 15ad afbd 7b31 a8bd
00000100: 27f4 253e 083d abbd ac2c cbbd f1c9 af3c
00000110: c571 10be 1176 ca3b 3809 85bc 9db9 b43a
00000120: 39cf 1ebd 5ea5 b13d 82be 983d c495 c83d
00000130: 14db 32be faca b73d d541 003d 9bf5 2fbe
00000140: 9dc5 2f3d 6de9 893d fc87 0abd fc15 aebd
00000150: 0ac6 31bd 0223 89bc 23bb aebc ef5d 413d
00000160: 0399 93bd ab48 0d3e 4b96 5dbe 0521 b03d
00000170: 37c8 d7bd c2ac cbbd 0d6f 45bd 83e3 c33b
00000180: c4b2 bd3d 0af9 823d 2313 603d b1d2 40bd
00000190: 21ba c9bc 158e 223f bb99 a03d 247f 093d
000001a0: 0f69 c53d acdf 36bd 2b53 0bbe ca10 5a3d
000001b0: adc9 5f3e b3d3 163d 6e8f 39be 3b2f 303d
000001c0: 5736 91bd 074d d9bd 7290 f53d ee4e 1a3d
000001d0: a97e d0bd 0896 973c 924d e3bc 8f72 52bc
000001e0: e85c e13d 12bb 6c3d 06d8 80bc 6bf7 ebbc
000001f0: 8703 ba3d e09c 0abd dfa0 ba3d f4df f8bd
00000200: 4da5 203d 57dc 0a3e 6a67 db3d 7c2c 58be
00000210: 68da 8b3d d548 0f3e 7551 163e f3c6 3fbe
00000220: c8e6 a7bd cd79 1cbd 5b8b 6cbc d686 da3d
00000230: a0d3 97bd c04b fb3c 668e 8abd 76f0 6038
00000240: 3d03 f43c 41be 333d a7e2 3d3d 53c3 ee3c
00000250: 5412 703e b52b a6bd b917 d4bb 2a0f 05bc
00000260: 0229 6abb 3498 1a3e d9d7 97bc 6714 d73d
00000270: c199 f3bd 43ed 433d ae11 843d dce3 2b3d
00000280: a8df 183e 21ac adbd 560c a63d 6725 e43d
00000290: 2930 f03d 80c6 0b3e bdd3 18bc 5868 4bbe
000002a0: 512f 03be ea70 e1bd 22cd a2bd eda3 adbc
000002b0: a418 39bd 5a91 08be ccc0 eb3d ce5c 713b
000002c0: 911a 003d f033 7dbd bfa1 043e 37e2 8f3c
000002d0: 119b 453c 1070 82be 3b9a 2bbd 44b5 18be
000002e0: efbd 203e 10fe edbc 65e0 d73b 22c6 8fbd
000002f0: 03b3 9fbd 5461 92bd 5c5e 333d 34ea efbc
00000300: f2d2 8dbd 0dc4 72bb d449 b03d 7d5b 8d3d
00000310: 6f41 7e3d dc89 083d b260 933a b870 65bc
00000320: 93ff 17bd 0c56 19bd a0db e23b bf3a a5bc
00000330: 8364 2d3e 6150 91bd 1a43 903d e375 443e
00000340: feb3 bebc 84ae edbc fc68 c83d 84ea 2dbc
00000350: d7ec f33d e61d d0bb 5d53 35bd 1f4e d3bd
00000360: 9b4a 2c3d d4ec 03be 1f04 d93d 4a2a 823d
00000370: 013b 4a3c 5069 143d 7481 fe3c de15 78bc
00000380: b986 4cbd eb36 13bd a69c 523d 3f92 313c
00000390: 5df1 ac3c 4c3b 0cbf f0a7 c83b 5236 a0bc
000003a0: 90be b7bc e4f8 28bb bfd5 313e baa7 09be
000003b0: febf 2abe 470f 913d f548 373e 97a4 673d
000003c0: 7f82 1c3e aaa7 9a3c e1df 023c de50 6bbd
000003d0: a0bd e13d 0591 863c bc68 62b8 0929 a93d
000003e0: 1fb9 97bd ef90 cbbd be82 8c3c fc06 abbd
000003f0: 0fbc 01bd c262 34bd afc7 223d c05f 5f3c
-0.04497797 -0.012612757 -0.079875164 0.14140384 -0.12058222 -0.01697869 -0.015283493 0.04768172
0.052831974 -0.045743093 0.004399507 0.025220204 -0.012699977 -0.027278675 -0.07945548 0.050726935
-0.045194253 -0.09649737 -0.008856888 -0.06782012 -0.14910144 -0.00421388 0.014046876 -0.034576394
0.086703315 -0.1745606 -0.122881144 -0.10542787 0.021021524 0.061544873 -0.0885429 -0.1478909
-0.19767337 0.14818953 0.034176677 -0.11458391 -0.2090557 -0.1657674 -0.13414538 0.2204747
0.16041996 0.03793432 0.13095137 -0.085043535 0.07491072 0.092909485 -0.17463581 -0.09878434
-0.1372111 -0.0967328 -0.14095926 0.028647898 -0.017355781 0.28088075 0.04410507 0.08182177
-0.042202458 -0.12724815 -0.10148352 -0.029125566 0.0695662 0.13192089 -0.08577935 -0.08212563
0.16206418 -0.0836125 -0.0992063 0.021458598 -0.141059 0.0061786254 -0.016239747 0.0013788227
-0.03877184 0.086741194 0.074582115 0.097941905 -0.17466384 0.089742616 0.031312782 -0.17183535
0.042913068 0.067339756 -0.03382109 -0.08500287 -0.043401755 -0.016740326 -0.021329468 0.047208723
-0.07206919 0.13797252 -0.21639363 0.08600048 -0.10536235 -0.0994506 -0.04820161 0.0059780492
0.092626125 0.06395157 0.05470575 -0.04707593 -0.024624886 0.6349805 0.07841822 0.033568516
0.09639179 -0.044646904 -0.13605945 0.053238668 0.21854277 0.036822986 -0.1812112 0.043013792
-0.07090443 -0.10610395 0.119904414 0.03767293 -0.101804085 0.018504158 -0.02774695 -0.012844696
0.110040486 0.05779559 -0.015728008 -0.028804502 0.09082704 -0.033841014 0.09112715 -0.12152091
0.039220143 0.13560615 0.10713084 -0.2111072 0.06828767 0.13992627 0.14679511 -0.18728237
-0.08198315 -0.038202096 -0.014437522 0.10670249 -0.07413411 0.030675769 -0.067654416 5.362971e-05
0.0297867 0.043882612 0.04635873 0.029145872 0.23444492 -0.08113805 -0.0064725545 -0.008121291
-0.003573001 0.15097123 -0.018535541 0.10501938 -0.118945606 0.047833692 0.06448685 0.04196535
0.14929068 -0.084800966 0.08107822 0.111399464 0.11727936 0.1364994 -0.009327826 -0.19864023
-0.12811019 -0.11007865 -0.07949282 -0.02119633 -0.045189515 -0.13336697 0.115113825 0.0036828998
0.031275336 -0.06181711 0.12952326 0.017563922 0.0120608965 -0.25476122 -0.041895133 -0.14912897
0.15697454 -0.02905181 0.006588029 -0.07020213 -0.07797816 -0.0714747 0.04379116 -0.029286481
-0.06925 -0.0037043125 0.086078316 0.06902216 0.06207412 0.033334598 0.0011244027 -0.014003925
-0.03710897 -0.037435576 0.006923154 -0.020169614 0.16932873 -0.07095409 0.070440486 0.19185595
-0.023279186 -0.02901388 0.09785649 -0.010614995 0.11910408 -0.0063512204 -0.044268955 -0.10317635
0.042063337 -0.12883312 0.10596489 0.06355722 0.012343169 0.036233246 0.031067587 -0.015141932
-0.04993317 -0.035941046 0.051418923 0.01083809 0.021111185 -0.5477798 0.0061235353 -0.019557152
-0.022429734 -0.0025783116 0.17366694 -0.13442889 -0.16674802 0.07082992 0.17898925 0.05655345
0.15284155 0.018878777 0.007987947 -0.057450168 0.11022496 0.016426573 -5.398014e-05 0.0825978
-0.07408356 -0.09939753 0.017152186 -0.083509415 -0.031673487 -0.044039495 0.039741214 0.013633668

bias f4 [2]
00000000: 94d6 843e e403 33be
0.2594496 -0.17481953
