test-data/test-app/Rosseta/lstm-Rosseta.pth (torch, 335639 bytes, 6 tensors)

weight f4 [512, 32]
000000 6c 1d e6 bc 15 40 6a bd 46 39 8a 3c 85 fb a8 bd
       -0.028090201 -0.05719002 0.016873013 -0.082510985
000010 8a 57 c7 bd 36 93 73 3c 8d 8e 3d bd 97 15 bc 3c
       -0.097334936 0.014866641 -0.046278525 0.022959514
000020 2b ee 9e 3c 39 35 1d 3e e5 af 80 3d 2b 60 9b 3d
       0.019400677 0.15352334 0.06283549 0.07586702
000030 2a 34 f9 bd 06 fb 55 bd 62 73 14 3e de 12 0d bc
       -0.12168153 -0.052241348 0.1449714 -0.008610455
000040 05 64 01 be 41 b1 ea bd be 2f 02 bd c6 15 10 3d
       -0.1263581 -0.1145959 -0.03178381 0.035177015
000050 71 ad 07 be 77 0f 81 bd 18 ca bd 3d ed 8c 18 3d
       -0.13249756 -0.06301778 0.09267062 0.037243772
000060 4c e9 33 3c e8 dd af 3d 66 51 51 bc e4 8c ac bc
       0.010980915 0.08587247 -0.012775755 -0.021063276
000070 51 b1 9b bd e7 0d 65 3c ed 4e df bc 0f 56 9b bd
       -0.0760218 0.013980365 -0.027259314 -0.07584774
000080 e9 a8 30 3d f5 3e 07 bd 6e d4 81 3d 9d e8 93 3d
       0.043129835 -0.033019025 0.06339346 0.07222102
000090 fd 75 51 bb c4 fc f0 3c 27 7d 57 3d a9 8f 97 3d
       -0.0031961196 0.029417403 0.05260959 0.07400448
0000a0 5a 96 6c bd 7c 60 c0 bd 02 74 0a bb e4 49 b1 3d
       -0.057760574 -0.09393403 -0.0021126275 0.08656672
0000b0 a7 ae 40 bd ad 82 b8 3c 9a 57 12 39 5c 72 a1 3b
       -0.04704156 0.022523249 0.00013956279 0.004926963
0000c0 32 fa f0 3c ce 1c 5d 3d c0 7c ec 3b a3 87 40 bc
       0.029416177 0.05398255 0.00721702 -0.011751088
0000d0 b1 0d 3f 3d 65 0d 00 bd 19 4e b9 3d 9f 05 1b 3d
       0.046643917 -0.031262774 0.09048099 0.037847158
0000e0 37 22 09 3d ea a2 04 3d 2a d0 f7 3c f0 bf 33 bd
       0.033479895 0.03238193 0.030250628 -0.043884218
0000f0 79 a2 f2 3b 1e 30 89 3d d4 1d 67 bd 06 63 67 bd
       0.007404622 0.06698631 -0.05642493 -0.05649092
000100 92 e1 1f bd c3 b4 81 bd 22 b0 5b 3c df d7 95 3d
       -0.03903348 -0.06333306 0.013408693 0.07316565
000110 75 00 6d 3c 5b 07 a4 bd fe 70 2e bd dc 21 8d 3c
       0.014465441 -0.080092154 -0.042588226 0.01722806
000120 1f df fd 3b 29 4c 9e bd 83 7a 60 3d a0 2c 86 3d
       0.0077475454 -0.0772937 0.054804336 0.0655148
000130 bf e3 8a 3d b2 b1 16 3a 0b a9 a4 bd 54 a0 48 3d
       0.0678172 0.00057485246 -0.08040055 0.048981026
000140 6a af 4d bd 3b 05 91 bd ed 48 9c bc 3a ef 83 3d
       -0.050216116 -0.07081076 -0.019077742 0.06442113
000150 f7 2b 3d 3d 9a 77 15 3c 6f 67 23 bd 8c 8d 88 bb
       0.046184506 0.0091227535 -0.039893564 -0.0041672643
000160 62 46 ef bc ec 45 ae bd 43 b1 2d bd af 22 73 3b
       -0.029208366 -0.0850943 -0.042405378 0.003709953
000170 1e 5f 85 3c 97 97 9d bc 75 3f 65 3d b2 dd 98 3c
       0.016280707 -0.019237323 0.05596872 0.0186604
000180 fa 4f 04 bd e2 b0 6d bd ef 0f 16 bd ed b6 23 3d
       -0.032302834 -0.058030017 -0.03663629 0.039969373
000190 b8 49 28 39 f3 0c 4f bd 2d 6a 2e bd 73 7d 1f 3e
       0.00016049191 -0.05054946 -0.042581726 0.15575199
0001a0 fc 09 cc b8 60 12 03 3e 72 2c 62 3d 06 b1 da 3d
       -9.729338e-05 0.12799978 0.055218168 0.10678296
0001b0 37 34 da 3d 53 6e 28 3e 32 7f c3 3d b6 ed 39 bd
       0.106544904 0.16448335 0.09545745 -0.045392714
0001c0 2b 0f e1 bc 1a 5d 66 3d 48 06 a3 bd 1a c4 c4 bd
       -0.027473053 0.056241132 -0.079601824 -0.09607716
0001d0 1d cb ce bc be ec e7 bd e4 08 99 3d 43 35 70 bc
       -0.025243336 -0.11324452 0.07472399 -0.014661136
0001e0 01 1f 17 3c 3c 3d c9 3d e0 19 6b bc d4 7e 73 bc
       0.0092237005 0.09826133 -0.014349431 -0.014861781
0001f0 00 9f 39 ba 7e 0f 36 3d 4e 4c ca bd 79 44 29 3d
       -0.0007080883 0.04444837 -0.09877835 0.041325066
000200 cd bc 86 bd dc c8 0d bd 90 27 b9 3d a2 15 3b bd
       -0.0657898 -0.034615383 0.09040749 -0.045674928
000210 eb 09 44 bd 46 22 23 bd 24 59 8c 3d c3 23 a5 3c
       -0.04786102 -0.039827608 0.0685294 0.020158654
000220 c5 11 c4 bc 5a dd 39 3d 06 79 15 3e 63 68 20 3d
       -0.023934254 0.045377113 0.14596948 0.03916205
000230 fe 63 43 3d 9a 1d 01 3e f1 81 0b 3e 82 8c aa 3d
       0.04770278 0.12608948 0.13623787 0.08327581
000240 0b 32 be 3c ec 02 e0 bd c2 af 0a be 6e 2e d7 bd
       0.023217222 -0.10938057 -0.13543609 -0.10506903
000250 9d 1f 21 3d 0a 17 ad bd 98 b1 0d 3e 8d b3 b1 bd
       0.03933679 -0.0845166 0.13837278 -0.08676825
000260 dc 38 0e be 8a ac 68 3d e5 49 9f 3b c1 59 8f bd
       -0.13888878 0.05680517 0.004861104 -0.06999541
000270 44 4b c6 3d 79 0d 33 3d 8b 35 44 bd 8e c6 45 3c
       0.096823245 0.04371402 -0.047902625 0.012071265
000280 ab 83 f7 bc c1 df 92 bd 59 06 7d bc e1 66 3f bd
       -0.030214151 -0.07171584 -0.015443408 -0.046728972
000290 b9 96 a6 3d a3 8f ed 3a 9c 14 bf bd f5 ff a9 3c
       0.08134217 0.0018124472 -0.09330103 0.020751933
0002a0 36 52 42 bd 31 37 8c bd 7e 22 8c 3d 03 a6 13 bd
       -0.047441684 -0.068464644 0.06842516 -0.036046993
0002b0 48 6c 88 bc 4a c5 5a bd ad 8d 0a bd 09 55 0e bc
       -0.016653195 -0.053410806 -0.03382652 -0.008687266
0002c0 d8 f8 90 bb 24 e6 7c bd 16 b6 24 bb b9 74 a1 3d
       -0.0044241957 -0.061742917 -0.0025132946 0.07883591
0002d0 45 55 44 3b 8b 72 e2 bd 54 72 2a 3d 4c bf 03 bd
       0.002995805 -0.110570036 0.041612938 -0.032164857
0002e0 60 1a 87 bd 15 8e dd 3c ca 08 96 3d 0c 27 9b 3b
       -0.065968275 0.027045289 0.07325895 0.0047348794
0002f0 47 8b 69 3c d1 84 78 3b d7 d6 0a 3c 44 82 20 3d
       0.014254398 0.0037920962 0.008474073 0.03918673
000300 87 8d f0 bd a0 60 90 bd b7 12 31 3c 89 57 0e bd
       -0.11745744 -0.0704968 0.010807685 -0.03475145
000310 ce 2b 64 bc 3b 24 97 bd f5 eb 6f 3d 1a fd 92 3d
       -0.0139264595 -0.07379957 0.058574636 0.071771815
000320 16 27 1d bb 66 88 cf 3d 0d 03 c3 bd 54 44 3c 3a
       -0.0023979596 0.10133438 -0.09522066 0.00071818125
000330 1f ea 80 3d f3 24 c2 bd df a6 41 3c e1 e2 94 bc
       0.06294655 -0.09479704 0.01181957 -0.01817459
000340 82 26 e3 3a 20 4c e5 bc a4 e6 f7 bc 12 71 cf 3c
       0.0017330202 -0.0279904 -0.030261345 0.02532247
000350 f5 46 6e 3d 63 d2 37 3d d8 1d 99 bd 56 1f bd 3c
       0.05817314 0.044878375 -0.07476395 0.023086231
000360 16 91 8e bd f7 75 c6 3d 97 78 38 3c 15 8e 19 3d
       -0.06961267 0.09690469 0.01125922 0.037489016
000370 25 c9 38 3d 3a e3 9d 3d 38 0d 5e 3d fd 0a 6f 3d
       0.0451137 0.07709356 0.054211825 0.05836009
000380 31 cc 30 bc 7b a6 10 bd 4e 74 8f 3d 0a 11 81 3d
       -0.0107908705 -0.03531502 0.07004605 0.06302078
000390 26 8f a5 3d 64 56 5d bd b1 56 9b bd 16 7e f3 3c
       0.08083944 -0.054037467 -0.075848944 0.029723208
0003a0 bc 95 0a 3d af 7d a4 bd dd 67 8f 3d 79 c9 48 bd
       0.033834204 -0.08031785 0.07002232 -0.049020264
0003b0 e8 64 a9 bd 6c 24 a2 bb c2 5e b2 bd f2 36 33 ba
       -0.082711995 -0.0049481895 -0.0870948 -0.00068364956
0003c0 a0 f0 34 3d 69 46 a8 bd 2e d9 a2 bd d5 af b6 3d
       0.04417479 -0.08216555 -0.0795158 0.08920256
0003d0 c0 f8 b9 3c 6e 38 a2 3d 46 72 05 bd e1 73 b0 3c
       0.022701621 0.07920919 -0.032579683 0.02153963
0003e0 ed c4 ec bb 8b b1 a3 bd ed 63 55 3d cd d5 a5 3d
       -0.007225624 -0.07992848 0.05209725 0.0809742
0003f0 71 f2 37 3b dd 19 a1 bd 30 0b ad bd 6c 66 36 bd
       0.002806809 -0.07866261 -0.084493995 -0.04453127

bias f4 [512]
000000 18 f0 4f 3d fe 67 85 bd 17 35 4b 3a 87 9c eb 3d
       0.05076608 -0.065139756 0.00077517465 0.115044646
000010 ff 3e 2d 3e a1 52 18 3d 00 be 7c 3d 75 f9 ca 3c
       0.16918562 0.037188176 0.061704636 0.024777154
000020 42 c0 ef bc 58 c5 f0 3c 24 3a 13 3e 09 3d 77 bd
       -0.02926648 0.029390976 0.14377648 -0.060360942
000030 17 59 80 3d ed b9 0e 3d 13 af de 3c da 27 6f 3d
       0.062669925 0.03484528 0.027183091 0.058387615
000040 f7 69 0e 3d 30 d6 13 3d 0f 16 e9 bc dd 9d c8 bc
       0.034769025 0.036092937 -0.028452901 -0.024489338
000050 52 b4 b3 3d 55 91 04 bd 32 a9 8e 3e 5f cd 0e bc
       0.08774628 -0.032365162 0.2786346 -0.0087159565
000060 77 3e 4f 3d 38 ce 0c 3d 08 a0 95 3d 71 37 ab bd
       0.05059668 0.034376353 0.07305914 -0.08360184
000070 90 9c fe 3c 98 13 b4 3d 22 74 50 3d c7 c8 95 3d
       0.031080514 0.087928 0.050892003 0.07313686
000080 09 ad aa 3c 1b e7 af 3d bd a2 dc 3c c9 7a 87 bd
       0.020834463 0.08589002 0.026933068 -0.06615216
000090 15 5a 9b bd 75 74 64 3d d2 57 62 bd 91 34 f8 3c
       -0.07585541 0.055775125 -0.055259533 0.030298503
0000a0 b0 93 2d 3e e8 98 4a bd 30 91 86 bc 9c 90 59 3e
       0.1695087 -0.04946223 -0.016426653 0.2124657
0000b0 fd 1c 56 3e e3 b3 7f bd bd d3 83 3c 63 12 78 3c
       0.20909496 -0.062427413 0.016092176 0.0151411025
0000c0 73 26 8d 3d 05 18 c5 bc d9 e8 87 bc 9d 44 b6 3d
       0.06892099 -0.024059305 -0.016590523 0.08899806
0000d0 2d 62 3e 3c a5 dc 76 3c 2c 00 0a 3c 31 17 bd 3d
       0.011620087 0.015067254 0.008422893 0.09232939
0000e0 d3 40 9a bc fe 3d 68 3d 43 2d 90 3d fd 8b 54 bd
       -0.018829739 0.056699745 0.07039883 -0.051891316
0000f0 ef 56 88 3e 57 4a c4 bc ed d9 8b 3c 33 4d b9 3d
       0.26628825 -0.02396123 0.017071689 0.09047928
000100 84 1a 80 bd c1 89 a6 3d 3a 23 56 3d 67 aa 9d 3d
       -0.062550575 0.08131743 0.05227969 0.07698517
000110 95 3e 4b 3e 54 4f f4 3d b5 4c 83 bd 09 6b e3 3d
       0.19848092 0.11929193 -0.06411115 0.111044
000120 73 da 8e 3d 40 a6 8d 3d aa 4b ad bb 6f e3 88 3d
       0.0697526 0.06916475 -0.005288561 0.066840045
000130 84 0e fc 3d 25 8b 2a bd 82 41 88 3d c0 7f 36 3d
       0.12307456 -0.041636605 0.066531196 0.044555426
000140 f0 7b dd 39 0e 4a 9a bd 36 7a 88 bd db cf 31 bd
       0.00042244745 -0.07533656 -0.06663935 -0.043411117
000150 4c 3f b1 bb 7c c3 9b bd 02 01 98 3d 2e 7e cc 3d
       -0.005409157 -0.07605645 0.07422067 0.09985004
000160 f4 7a 80 3c 69 b7 1b bd 7b 1c 7f 3d 0e 2d 68 bc
       0.015683629 -0.03801671 0.06228302 -0.014170898
000170 b2 37 f7 bc 5a 74 86 3d ca 22 8d 3d af b8 6a bd
       -0.030177925 0.06565161 0.06891401 -0.057305034
000180 e6 ac 11 3d d1 48 47 3c 74 d1 35 bd f0 65 f2 3d
       0.03556528 0.012163357 -0.044389203 0.11835849
000190 e4 21 c8 bc d6 7b 86 bd 93 97 93 3d 3f e8 5c 3d
       -0.024430223 -0.065665886 0.07206645 0.053932425
0001a0 6c 5d aa 3d df d1 98 bd a1 db d3 3c 1d e5 1a 3d
       0.083186 -0.07461905 0.025861563 0.037816156
0001b0 79 35 a8 3d 63 a6 35 3d 15 6f 82 3d b4 44 0c 3d
       0.08213324 0.044348132 0.063688435 0.034245208
0001c0 ca 10 49 39 22 44 8f 3d ce 52 0b 3e e8 ea a8 3d
       0.00019175108 0.06995417 0.13605806 0.0824793
0001d0 7c 99 09 3d a9 1d a7 3c 8e 2a 60 3d b4 7d 0a 3d
       0.03359364 0.020399885 0.054728083 0.033811286
0001e0 fa 69 11 bb 2a 8b c5 3d 76 ee 34 bd 5b 16 85 3d
       -0.002218841 0.09645684 -0.044172727 0.064984046
0001f0 cf c8 b6 bc fb 73 94 3d 60 f6 26 3d 75 a2 f6 3b
       -0.02231255 0.07248684 0.040762305 0.0075266906
000200 7c 34 cc 3d 69 9c 13 3c 28 c9 48 bd 70 73 c9 3d
       0.09970948 0.009009459 -0.049019963 0.09836471
000210 56 15 72 3d 17 3e 1a bd 6b bd cd 3b 0e 0d 4c bd
       0.05910238 -0.03765687 0.006278684 -0.049817137
000220 8e 78 03 bd 43 25 62 3b d5 42 a3 bd be f7 f3 3c
       -0.03209739 0.0034507073 -0.079717316 0.029781219
000230 3d 82 57 bc de be d8 bc 25 41 aa 3d f8 58 b6 bd
       -0.01315361 -0.0264582 0.083132066 -0.08903688
000240 dc a8 1a 3d c6 91 37 3d e9 77 c9 3d 18 a7 45 bd
       0.037758693 0.044816755 0.09837324 -0.048255056
000250 3b 50 39 bd 5f 3c 7d 3d 8f 9a ea 3c a5 ad 8a bd
       -0.04524253 0.061825152 0.028638152 -0.06771401
000260 cd 8b 08 bd 60 83 53 3d 04 4c fd 3d 62 31 45 3d
       -0.03333645 0.05163896 0.123680145 0.0481428
000270 b5 10 16 3e 31 f8 ca bc 6b ae 45 bd 59 e5 d1 3d
       0.1465481 -0.02477655 -0.04826204 0.10248823
000280 dc 40 67 3d 80 c8 3c bc 4a b7 62 3d fd 3a 00 3d
       0.05645834 -0.011522412 0.05535058 0.031306256
000290 c0 3a 07 bc 22 b2 8e bd 34 86 82 3b 5e f6 d6 bb
       -0.008253753 -0.0696757 0.0039832834 -0.006560131
0002a0 d7 54 5c 3c 04 1e 6e 3c 80 7e ba 3d 22 49 d3 3d
       0.013447962 0.0145335235 0.09106159 0.10316683
0002b0 14 ee 96 3d 27 1d 80 bd 73 6c 74 3d db be b4 bc
       0.073696285 -0.0625556 0.059673738 -0.022063663
0002c0 0a 5d b4 bc 78 66 42 3d d4 19 69 3c 3f e2 e9 3d
       -0.02201702 0.047461003 0.014227349 0.11420106
0002d0 c4 37 91 3b 15 ee c1 3c 75 bc fb bc fd be 46 3d
       0.0044316966 0.023673097 -0.030729512 0.048521984
0002e0 17 fd 5c 3d 3a bb 42 3d 55 f1 02 3d 57 16 8c 3d
       0.053952303 0.047541834 0.031968433 0.068401985
0002f0 e7 01 e8 3e 8a e0 59 bd 69 66 9d 3d e4 46 82 3d
       0.4531395 -0.053192653 0.07685549 0.063611776
000300 73 83 9a 3d 73 41 bd 3d a6 ae ef 3c e1 84 fe 3c
       0.07544603 0.09240999 0.029258084 0.031069221
000310 5e 93 92 3c 9f 8c 14 3d c7 16 81 bd 92 59 45 3d
       0.017892536 0.03626692 -0.063031726 0.048181124
000320 df a2 e7 bc 04 67 86 3c d0 bf 9f 3c 2e 6d 8a bd
       -0.028275905 0.016406544 0.019500643 -0.067591056
000330 8f 88 a8 3d 55 50 64 3d ae 82 ba 3c 85 c8 0b 3d
       0.082291715 0.055740673 0.022767391 0.034126777
000340 63 35 6e 3b 01 8b 31 bd 57 d2 3e bd 3d 9d 40 bd
       0.003634774 -0.043345455 -0.046587314 -0.047024954
000350 45 64 b5 3d 9c d9 b8 3d 01 8b b1 bd a8 13 c4 bb
       0.088570155 0.09025881 -0.08669091 -0.0059837885
000360 4d 53 df bc 6c cc a5 bb e2 54 56 bd 4d ef 9c bd
       -0.0272614 -0.0050597694 -0.052327044 -0.076628305
000370 cb 9d 18 3b bb 98 f3 3d db da 73 bd 8a eb 59 3d
       0.0023287411 0.118943654 -0.05953489 0.053203143
000380 92 ef 89 3d 31 bc 40 3c 7b a6 95 bd a0 ef 7d 3b
       0.067351475 0.011763618 -0.07307144 0.0038747564
000390 6d 52 aa bc f9 78 5c 3d 6b cd 26 bd db d8 37 3b
       -0.020791257 0.053826306 -0.040723246 0.002805284
0003a0 a4 d5 62 bd bb 84 8b bd 02 46 85 3c 26 11 17 bd
       -0.055379525 -0.06812426 0.016268734 -0.03688159
0003b0 c8 a8 a3 3d 14 9f 78 bd 5a 81 9c 3d f3 3e bb 3d
       0.07991177 -0.060698584 0.07641859 0.09142866
0003c0 f8 d4 db bc fe 9d 8f bd 9a 0f 50 3e 0f bb 67 bd
       -0.02683495 -0.070125565 0.20318452 -0.056574877
0003d0 89 72 50 3d 2e 9f 98 3d be 96 02 bd 4d 76 9d bd
       0.05089048 0.07452236 -0.03188204 -0.0768858
0003e0 ae af 54 3d 0c 52 8f 3c 9d f1 6e bc c9 15 9f 3d
       0.051925354 0.017495178 -0.014583972 0.07767827
0003f0 82 3a 7c 3d 93 a6 5e bc 78 c0 7a 3d 61 fb 4e 3d
       0.061579235 -0.013589519 0.06121871 0.050532702

weight f4 [512, 128]
000000 fa 36 b9 3b 53 73 29 3c 7e 51 71 3d 13 6f 1b bb
       0.0056523057 0.010342437 0.058915608 -0.0023717328
000010 0e 5d 8d 3d 5e 3c 9e bd e1 42 ca 3c e7 53 96 bd
       0.069025144 -0.07726358 0.024690093 -0.07340222
000020 11 fb 3c bd 04 b1 9a bd 71 46 a7 3d 19 8e b5 bc
       -0.046137873 -0.07553294 0.081677325 -0.022162484
000030 63 63 1a bd d0 69 15 3b f4 f2 89 3d 03 7f 12 3d
       -0.03769244 0.0022798665 0.06735793 0.03576566
000040 2e 98 66 bc b5 80 a2 3c 55 1e 71 bd 71 39 ad 3d
       -0.014074368 0.019836763 -0.058866818 0.08458222
000050 22 57 a8 bd 12 b0 e2 bc 58 9f c5 bd 4b 79 34 bd
       -0.08219744 -0.027671847 -0.09649533 -0.044060986
000060 6c f5 2e 3c ee 5c 8d bd cd eb 29 3c cf 91 1a 3d
       0.01067863 -0.069024906 0.010371161 0.03773671
000070 ff ee 96 bd 9b 1a 8f bd 29 d9 a7 bd 2d 66 8b bd
       -0.07369804 -0.069874965 -0.08195717 -0.06806598
000080 b1 81 77 3d 8f 0b 21 3c 6b 60 92 3d 05 2c 9e 3d
       0.060426418 0.009829416 0.071472965 0.0772324
000090 5f 79 97 bc 98 1c 1a bb f3 de 92 3c 8e b8 d2 3c
       -0.018490491 -0.0023515578 0.017928576 0.025722768
0000a0 b9 3d 90 3d ae 3e 91 bd 97 0a 91 bd 94 c3 52 bd
       0.07043023 -0.07092033 -0.07082098 -0.05145605
0000b0 63 ec ea 3c bb b9 66 bd 0c 5b de bb f7 c7 41 3d
       0.028677171 -0.05632947 -0.006785756 0.047309842
0000c0 6a ee 81 bd 42 d4 0c bd 04 16 79 3d cc c1 2e bc
       -0.06344302 -0.034382112 0.06081201 -0.010666322
0000d0 0a 07 12 bd dd c0 14 3d 7a c2 14 bc 06 50 8a 3c
       -0.035651244 0.03631674 -0.00907957 0.016883861
0000e0 5a 79 af bd 91 f6 81 3d e8 1b 19 3d 8b df 91 3d
       -0.08568068 0.06345857 0.03738013 0.071227156
0000f0 d3 ec c8 3c a9 28 8e bd 7b 38 9b bd 8e 1e fd 3c
       0.02452699 -0.06941349 -0.07579132 0.030898359
000100 8d d1 fc bb 92 d9 49 3d e3 b7 2a 3c 9c 40 27 bd
       -0.00771541 0.049279757 0.010419819 -0.0408331
000110 57 d9 9a 3d ae 8f a2 bd e2 17 04 3d b8 1a 41 bd
       0.075609855 -0.07937561 0.03224934 -0.04714462
000120 5a 83 ac bd fc 0b 2c 3d 77 2e 72 3d 10 1c 84 3d
       -0.08423491 0.042003617 0.059126344 0.06450665
000130 89 ca 18 3c 7d 99 6b bd 65 d8 6d bd 55 f8 84 3d
       0.009325632 -0.057519425 -0.058067698 0.06492678
000140 cf cd aa 3d f6 3f 6d bd 8a af 24 bd 64 4f af 3d
       0.08340036 -0.057922326 -0.04020647 0.085600644
000150 0b 12 ee 3c 37 ca 30 bd 49 e1 ab bb 45 72 ed 3c
       0.029061338 -0.043161597 -0.005245362 0.028985152
000160 7b f8 20 bd a1 b2 1b bd 12 e2 5d 3c 27 69 51 bd
       -0.03929947 -0.03801215 0.013542669 -0.05112567
000170 89 c0 96 3d 48 8e 8f bc 16 89 94 bd 51 64 81 bd
       0.07360942 -0.0175239 -0.072527096 -0.06317962
000180 ea a1 a7 3d 62 10 d5 bc 86 d9 92 3d 9c 79 45 3c
       0.081851795 -0.026008788 0.071703956 0.01205292
000190 ab 0b b8 3d b8 a9 5f bd b0 84 56 3d 5b 40 13 3d
       0.089866005 -0.054605216 0.052372634 0.035950046
0001a0 cf 88 4c 3d 5d 4c f7 3c 7e be a4 bc d0 14 6b bd
       0.04993516 0.03018778 -0.020110365 -0.057392895
0001b0 c6 95 6b bd 42 c3 98 bd 73 b9 48 3c 46 85 ae bc
       -0.057515882 -0.074591175 0.012251246 -0.021303784
0001c0 35 29 b2 bc 3e 96 ce bc 47 a2 36 3d 41 f6 29 3d
       -0.021748165 -0.025218125 0.044588353 0.04149461
0001d0 76 3b 2e bd 3a 66 c6 3c 55 ac 9b ba 7a 17 61 3c
       -0.042537175 0.024218667 -0.001187692 0.013738507
0001e0 88 51 ab 3d 13 48 4d bc ca 8f a3 3d c4 3e 8a 3b
       0.0836516 -0.012529391 0.0798641 0.004218908
0001f0 51 77 04 bd df e8 de bc 96 61 ee 3c b1 50 ac bc
       -0.03234035 -0.027210651 0.029099267 -0.02103457
000200 a4 06 07 3c 80 ce 8a bd 01 7a a2 3d ac 09 64 3d
       0.008241329 -0.06777668 0.07933427 0.055673286
000210 e0 5d 8c 3d d2 af 4a bd f6 6a 72 3d 72 28 9b 3d
       0.06853843 -0.04948408 0.059184037 0.07576074
000220 9d e5 35 3d d2 70 14 3b 44 8d 84 3d 7e 9a 87 3d
       0.04440843 0.0022650254 0.06472257 0.06621264
000230 37 bc 7d bd f7 07 5e bc 72 0d 83 3d c2 59 02 bc
       -0.061947074 -0.013551704 0.06399049 -0.00795597
000240 cd 1b 7c 3d 91 4a a6 3d 92 b0 e0 3a ea f3 84 3d
       0.06154995 0.08119691 0.0017142466 0.064918354
000250 9d 90 05 3d bd 91 29 bc 9e 62 87 bd f4 5c 08 bc
       0.032608617 -0.010349688 -0.066106066 -0.008322943
000260 00 e4 66 3c 4e 3f 39 3c 7f cc 09 bd 75 3a 75 3d
       0.014092445 0.011306597 -0.03364229 0.059870202
000270 e8 87 a5 3d c1 59 b2 bd 18 aa 80 3d 32 9f 7a 3d
       0.08082563 -0.087085254 0.06282443 0.061186977
000280 35 75 ad bd 07 ca a9 bd a4 9b 61 3d eb b6 0f bd
       -0.08469621 -0.08290487 0.05508007 -0.035086554
000290 e9 95 44 ba ba 19 0e 3b 68 30 62 3d bf 93 0d bd
       -0.0007499145 0.0021682815 0.055221945 -0.03456473
0002a0 cc 12 a8 3d c8 0c 4b bd e5 33 63 3d d4 fd 9b bd
       0.0820671 -0.049572736 0.055469412 -0.07616773
0002b0 fd b9 39 3d 97 d2 6e bd 06 64 cc 3a 54 b4 56 bd
       0.045343388 -0.058306303 0.0015593774 -0.052418068
0002c0 f0 5b 41 3d b5 4d a8 3d f2 bc 63 bd ed 1d 0b 3b
       0.04720682 0.082179464 -0.055600114 0.0021227554
0002d0 09 2b 64 3c a6 1a 0c bd b5 41 99 bc a6 54 9c bb
       0.013926276 -0.0342051 -0.01870809 -0.004770833
0002e0 8c 79 22 3a 25 52 a2 bd 13 6e 4f bd 1e 80 b2 3d
       0.00061979215 -0.07925824 -0.050642084 0.08715843
0002f0 f6 1a a3 3d 48 43 95 bc e7 0e de bc 03 63 f6 bc
       0.07964127 -0.018220559 -0.027106715 -0.03007651
000300 dd ef 40 3c 39 fb 3f bc 51 48 d3 3c ad 28 ff 3c
       0.011775938 -0.011717611 0.02579132 0.031147325
000310 00 c1 75 bd 67 cf 01 bd b7 3a 8f 3d 82 ab 6e bd
       -0.059998512 -0.031691935 0.06993621 -0.05826903
000320 60 f3 9b 3d ab 15 b2 3d e3 bc 98 bd 85 12 35 bd
       0.076147795 0.08695539 -0.07457902 -0.044207115
000330 8f b8 ad 3c 47 1e 8d 3d 40 69 e0 3c 40 31 73 bd
       0.021206168 0.068905406 0.027393937 -0.05937314
000340 50 df 40 3b 8a 7e 48 bc 55 5d 9d 3c cf bf cc 3c
       0.002942998 -0.0122372005 0.019209543 0.024993805
000350 4a 44 98 bc c7 23 0d bd 42 3d 81 3d 34 30 2e bc
       -0.01858725 -0.034457948 0.06310512 -0.01063161
000360 37 5b 89 3d ee 7e 02 3d 4e 5e bd 3c 93 ef 6c 3d
       0.06706851 0.03185933 0.023116257 0.057845663
000370 0e 09 e2 ba 7f b9 8f bd c9 ef 3f 3d 62 70 89 3d
       -0.001724513 -0.070178024 0.046859536 0.067108884
000380 21 2d 15 3d 28 7c 03 bd ce 10 4b 3d 14 35 3a 3d
       0.03641999 -0.032100827 0.049576573 0.045460775
000390 9f bc 32 bd 09 2a aa bd 50 f7 d5 bb c0 cf 21 bb
       -0.043636914 -0.08308799 -0.006529726 -0.002469048
0003a0 cc d4 84 bd 71 14 94 ba 28 e2 51 bd 11 72 4c 3d
       -0.064859 -0.0011297596 -0.05124107 0.04991347
0003b0 46 41 46 3d 6a 19 97 bd 7a 05 49 bb 37 c3 8f 3d
       0.048402093 -0.07377894 -0.003067343 0.07019656
0003c0 cc 90 9f 3d f5 c2 39 3d 77 7a b0 3d e5 35 34 bc
       0.0779129 0.04535194 0.08617108 -0.010999178
0003d0 6f 85 df bc 28 c9 29 bb 6e 17 80 3c e3 d9 9b 3d
       -0.027285306 -0.0025907252 0.015636172 0.07609918
0003e0 21 cf 6b bd 23 60 34 3d e0 12 2a 3d a9 e8 33 3d
       -0.05757058 0.044036996 0.041521907 0.043923054
0003f0 34 d2 a8 3c 81 8f 2b 3d 17 58 cb bc 5e 3c 6c bd
       0.020608045 0.041884903 -0.024822278 -0.057674758

bias f4 [512]
000000 fd 08 2b 3d ba fa 80 3d 5e 9e c4 3b 77 c0 1c 3e
       0.04175662 0.06297822 0.006000324 0.15307795
000010 4f af c1 3d 19 f6 62 3d a3 74 94 3c fb 06 70 bd
       0.094572656 0.05541048 0.018122023 -0.058600407
000020 34 3a 7e bd cb 48 29 bc bf fb 02 3e d3 53 2e 3d
       -0.062067226 -0.010332297 0.12791346 0.04256041
000030 4d aa 46 3c fd e5 d9 3d 9e 83 74 3d df 87 7b bd
       0.012125564 0.1063957 0.059695832 -0.061408874
000040 6e 28 9f bc 0c eb 7e 3d 00 07 ad 3c dc 0b 37 bd
       -0.019428458 0.062235877 0.021121502 -0.044689044
000050 35 f9 98 bc 9e 31 27 3d b2 dd 84 3e b7 f1 df 3c
       -0.018673519 0.040818803 0.2595039 0.027336938
000060 9c cc ed 3c af 76 5a 3d 5b 66 24 3e 6c 94 aa bd
       0.02902823 0.05333584 0.1605467 -0.083290905
000070 e7 a7 fc 3d c3 4a 93 3d d1 af b5 3d fd b9 20 ba
       0.12336712 0.07191994 0.08871425 -0.000613123
000080 79 4c 5c bc 4d 6c af 3d 16 b4 66 3d 21 31 76 3a
       -0.013445967 0.085655786 0.056324087 0.0009391476
000090 cb 4d 6a bd d9 ff 6a bd 70 4e b0 bd d2 e5 89 bc
       -0.057203095 -0.0573729 -0.08608711 -0.01683322
0000a0 02 b2 e8 3d 0a 09 b5 bc 65 ac 7d bd fc a9 27 3e
       0.11362077 -0.022099037 -0.061931986 0.16373438
0000b0 f3 c2 25 3e 4c 52 52 bd 47 25 35 3c 32 ac 8c 3d
       0.16187648 -0.051348016 0.011056251 0.06868781
0000c0 e0 47 93 bd 3d 15 94 3d 2f 3b 09 3d 67 94 ea 3d
       -0.071914434 0.072306134 0.033503707 0.11454087
0000d0 71 01 0f 3d 44 f1 c1 3d c9 af 0d bd 0c 98 16 3e
       0.034913484 0.09469846 -0.03459147 0.14706439
0000e0 39 1e 95 3d 37 2b e3 3c 58 57 fd bb 46 6f f7 bc
       0.07281155 0.027730567 -0.0077313595 -0.030204426
0000f0 bd d8 a9 3e 67 3f 3e 3c a3 1d 90 bb e3 7a 80 3d
       0.3317317 0.011611796 -0.004398064 0.06273439
000100 fb 2c b1 3d 89 8d d2 bb a0 e0 72 3d f3 11 04 3e
       0.086511575 -0.0064255637 0.05929625 0.12897472
000110 a8 a9 21 3e bd 84 55 3d 13 bc b2 bc 44 b7 f4 bb
       0.15787375 0.052128542 -0.021818196 -0.007468136
000120 dc 0c 7b 3d 6d 33 ba 3d 94 af c2 3c ef f0 02 3e
       0.06129156 0.0909184 0.023765363 0.12787221
000130 56 24 06 3e 6c 6b b8 3c 6b da 2e 3c 43 4e dd 3c
       0.13099799 0.02251216 0.010672192 0.027014857
000140 58 08 37 bd f5 d7 f9 3c 94 82 e7 bc 94 c1 61 3d
       -0.04468569 0.030498484 -0.028260507 0.05511625
000150 fd 55 9e 3c 08 ef 1b 3d e2 34 aa 3d 5b af f2 3c
       0.019328112 0.038069755 0.08310868 0.029624632
000160 a3 c7 1f 3d 1c 72 57 3d be 7d ce 3d e8 3b 77 3c
       0.039008748 0.052599058 0.10082577 0.015089966
000170 06 80 92 bc 2c 19 b2 3b cc 58 e8 bc 65 ad b0 3d
       -0.017883312 0.0054351296 -0.028362654 0.086268224
000180 7d 5e 2d 3d c2 6c 8f 3d 95 1d c2 3c 1d 8e 77 bc
       0.04232644 0.07003166 0.023695746 -0.015109566
000190 a2 fb d5 ba a0 9a 83 3d 1f 3e 0f bc 9e 48 8e bb
       -0.0016325603 0.06425977 -0.008742838 -0.0043421527
0001a0 7f 88 36 3d 70 3a 60 bd 50 7a 85 bc a8 c3 ca 3d
       0.044563767 -0.05474323 -0.016293675 0.099006
0001b0 d4 95 de 3d 63 1b 03 3e c2 0f ec 3d 04 8f 8f 3d
       0.10868421 0.12803416 0.11526443 0.070097
0001c0 0b ad a1 3d 1a 2e 0a bc eb 9a e7 3d 38 f5 a5 bd
       0.078943335 -0.008433843 0.11308845 -0.081034124
0001d0 a6 fc f4 3d d9 1f c0 bb 2b 48 b6 3d 92 a2 2c 3d
       0.11962251 -0.0058631715 0.08900484 0.042147227
0001e0 e3 a1 7c bd 37 f2 9e bd b2 5d ce 3d 1c e3 0b bd
       -0.061677825 -0.077610426 0.10076465 -0.034152135
0001f0 c3 a6 d4 3c e0 ce 0f 3d e6 b6 a3 bc 24 39 79 3c
       0.025958424 0.0351094 -0.019984674 0.015211377
000200 32 2a bf 3c f1 83 72 3d f4 85 74 bd 11 89 7d 3c
       0.02333555 0.05920786 -0.05969806 0.015474574
000210 0e 1a 03 3e 41 bf b0 bd b8 3c d9 bc f6 7e 92 b9
       0.12802908 -0.08630229 -0.02651821 -0.00027941883
000220 5b 8e bf bc cc bc 56 bc 59 7a a9 3d b8 bc 1e 3c
       -0.02338331 -0.013106536 0.08275289 0.009688549
000230 44 5a 97 bb 01 f0 7f bd 88 99 4d bb 15 a7 95 bd
       -0.004618915 -0.062484745 -0.003137203 -0.07307259
000240 94 03 84 3d d9 f2 ac bc 7c 6c 4f bd bc ba 3d bd
       0.06445995 -0.021111893 -0.050640568 -0.046320662
000250 c1 1f 43 bc 09 8e a9 bd a4 1b d8 3d 52 e8 9d 3d
       -0.011909426 -0.08279044 0.10552147 0.07710327
000260 87 8c e4 3d 60 4a 1c bd 8f a4 15 bd 08 7d 9f bc
       0.11159616 -0.038156867 -0.03653389 -0.0194688
000270 b1 8f cf 3d d8 79 82 3c f4 50 6f bd 85 29 a7 3d
       0.10134829 0.01592724 -0.058426812 0.08162216
000280 c5 39 71 3d 37 e8 b6 bc f8 a0 de 3d eb 9e 16 3c
       0.058892984 -0.022327526 0.10870546 0.009193162
000290 4f e0 92 bd 3c c6 3f bc ac bd 78 bd 9e 25 9f ba
       -0.0717169 -0.011704978 -0.06072776 -0.0012141948
0002a0 0b 22 06 3e f0 89 ac 3d 17 d5 41 3d b5 74 ec 3d
       0.13098924 0.08424747 0.04732236 0.115456976
0002b0 18 81 d0 3d 84 8d 3c 3c 5b fb 15 3c 5a 05 30 bd
       0.10180873 0.011508349 0.009154166 -0.042973854
0002c0 71 d6 d2 3c 00 d0 de bb 7d cb 8b bd 00 f3 9b 3d
       0.02573702 -0.006799698 -0.06825922 0.07614708
0002d0 fa d6 0d 3d f9 a7 3f bd 3f 49 09 bd 80 3d bf 3c
       0.034628846 -0.04679105 -0.03351712 0.023344755
0002e0 9e 17 a2 3d 90 70 a2 bb f3 39 07 3d 64 62 94 bd
       0.07914661 -0.004957266 0.03301425 -0.07245329
0002f0 d3 be de 3e 77 c9 9f bc e7 76 4b 3c 76 58 37 bd
       0.43504962 -0.019505246 0.012418485 -0.044762097
000300 a8 ff 97 3d 76 0f b4 3c 68 d1 40 3d 2c 81 74 3d
       0.074218094 0.021980029 0.047074705 0.0596935
000310 bd 6c c7 3c db b1 6b 3d 56 35 39 3c 8c d5 28 bd
       0.024343843 0.057542663 0.01130422 -0.04121928
000320 ca f7 30 bd b0 43 8e bd 44 06 a7 bb 1c 42 99 3c
       -0.04320506 -0.06946504 -0.0050971825 0.018708281
000330 9d 4b 01 3e 43 92 85 3d 89 65 8e 3d 4a fb 0b 3d
       0.126265 0.06522038 0.0695296 0.034175195
000340 c1 1a 50 bd a5 df 6d 3d f7 48 30 bc 81 e7 f2 bc
       -0.050806765 0.058074612 -0.010759584 -0.029651405
000350 db d1 51 bc d5 c4 37 3d a0 35 7e 3d 96 f8 87 3d
       -0.012806381 0.044865448 0.06206286 0.06639211
000360 b5 eb 21 3d 2b 0b 87 bd 05 77 19 bd cc e8 f9 3c
       0.03953143 -0.06593927 -0.03746702 0.030506514
000370 21 6f 45 bd 1b 0d dd 3d 34 fe 8e 3d 8d 7b 8b 3d
       -0.048201684 0.10793515 0.06982079 0.06810675
000380 07 10 66 3d 25 7e fa 3c c1 d1 85 3d eb 12 90 3d
       0.05616763 0.030577729 0.06534148 0.07034858
000390 d6 1c 96 3d 4a 8c b1 3d 64 e0 83 bc ba b2 71 3c
       0.07329719 0.08669336 -0.016098209 0.014752084
0003a0 9b 65 58 bd 41 6e 98 3c fe 01 50 3b 97 db 40 3d
       -0.052831274 0.01860726 0.0031739469 0.047084417
0003b0 e5 ef 12 3d c8 9d b8 3c 41 6c 64 bd 6e 18 9d 3d
       0.035873313 0.022536173 -0.0557673 0.07670675
0003c0 f1 07 ef bb c3 b8 5d bc 45 2a 12 3e fd bf 8f bc
       -0.007294648 -0.01353282 0.14273937 -0.017547602
0003d0 75 c1 a8 bc ad 19 60 bc 5d 5b 64 bd c5 0d 91 bc
       -0.02060006 -0.013677997 -0.055751193 -0.017706761
0003e0 01 cd cc 3a b5 e9 b8 3d 68 8f 10 bd f7 38 1a 3d
       0.0015625061 0.09028951 -0.035293013 0.037651982
0003f0 ed 11 6a bd b5 a0 55 bd 70 5b 6c bb f0 7a aa 3d
       -0.057146 -0.052155215 -0.0036065243 0.0832423

weight f4 [2, 128]
000000 70 75 96 3e 9d 3c df bc e5 9f a6 bd 32 95 be 3e
       0.29386473 -0.027250582 -0.08135966 0.37223202
000010 31 a7 d2 3e fc 0a 99 3e 2b be da be 13 95 16 3d
       0.41143182 0.29891193 -0.42723212 0.036763262
000020 b3 19 e5 3d d3 8e c5 be 44 7e fe 3e 40 f1 cb 3d
       0.11186542 -0.3858553 0.49705708 0.09958124
000030 4d 61 64 3e 8d 06 4b 3e a1 b7 5d 3e 63 5d 1b be
       0.22302742 0.19826718 0.2165208 -0.15172343
000040 82 5a 7c 3d bb b2 ed bd 47 28 f7 3d 2b 62 73 be
       0.061609752 -0.11606356 0.12068229 -0.23767917
000050 bb 1e 0a be 06 de 0e 3e 57 f0 45 3f 63 34 aa bc
       -0.13488285 0.13951883 0.77319854 -0.020776933
000060 09 55 ae 3e 55 e1 46 3e 6e dc 21 3f 31 c6 4f 3d
       0.34049252 0.19421895 0.63226974 0.05072612
000070 03 05 c5 3e be 28 84 be c3 76 8d 3e 5d 4d 98 3e
       0.38480386 -0.25812334 0.2762967 0.29746523
000080 58 90 64 be c2 69 50 3e d6 92 a6 3d 73 21 09 be
       -0.22320688 0.20352843 0.081334755 -0.13391666
000090 28 2b 8d bc 1c eb 42 3e 80 99 94 bc 3a 4f a3 be
       -0.017232493 0.19035 -0.0181396 -0.31896383
0000a0 22 68 0e bf cc e5 4b 3d ec 08 cd bd d4 1f 12 bf
       -0.55627644 0.0497797 -0.10011467 -0.57079816
0000b0 8d 2e 2f bf 27 b1 36 be 6d 0c 35 3d 4c 38 9d 3e
       -0.68430406 -0.17841016 0.044201303 0.30707014
0000c0 50 2d f9 bd b5 a4 e3 3d 54 22 20 3d d3 88 d0 3e
       -0.12166846 0.111154 0.039095238 0.4072939
0000d0 26 cc ae 3e 8b 47 ae bd 39 2b ec 3d e7 16 f4 3e
       0.34140128 -0.085097395 0.115316816 0.47673723
0000e0 d8 73 0e bd ab 65 39 3e 63 c1 b8 be c4 72 14 3e
       -0.034778446 0.1810519 -0.36085042 0.14496905
0000f0 f0 1d f7 3e 3e e6 64 be 5e 70 26 be 9d 2f ee 3d
       0.48265028 -0.22353455 -0.16253802 0.11630175
000100 b5 3f a5 bd a8 2c 15 3e 4d 54 a9 be 5a 7f 97 3e
       -0.08068792 0.14567816 -0.3307213 0.2958935
000110 b1 21 3a bf 82 b1 b9 be fa c7 6e 3b 35 18 b6 be
       -0.7270766 -0.3626824 0.0036435113 -0.35565343
000120 36 f8 38 be 10 e4 cd bc b0 7e a0 bd 60 bb 98 be
       -0.18063435 -0.025133163 -0.07836664 -0.29830456
000130 dd 8a 3c 3f 1b 39 25 3e b7 bf c3 3d 6a 3a 36 3c
       0.7364939 0.16135065 0.09558051 0.011122325
000140 6d 86 0b 3e bb 2b 04 be f5 66 da 3d c6 b2 14 be
       0.13625498 -0.12907307 0.10664169 -0.14521322
000150 48 18 5d 3e 08 90 13 bd c8 8b c1 bd 96 d5 d0 be
       0.21591294 -0.03602603 -0.09450489 -0.40787953
000160 a4 fd 97 be c7 28 5e 3d f4 10 80 3e 9a c5 90 3d
       -0.296857 0.054238107 0.25012934 0.070689395
000170 fe cb 5f 3e 2e da 04 be 40 06 1a 3e aa 0e 90 3c
       0.2185516 -0.12973854 0.15041447 0.017585117
000180 0d 84 6f bd d3 10 34 3e 2f f6 d1 3d ba 00 80 be
       -0.058475543 0.17584543 0.10252034 -0.25000554
000190 73 90 30 be f9 9d 24 be 90 86 10 3e 25 cc d9 3d
       -0.17242603 -0.16075887 0.14113832 0.106346406
0001a0 2f 9d 21 3e d2 06 23 3e 92 3e fd 3c 01 c0 e9 3e
       0.15782617 0.1592057 0.030913625 0.456543
0001b0 8f 0c 1e bf e5 e3 b1 be 88 2a b8 3e 28 56 37 be
       -0.6173791 -0.34744182 0.3596995 -0.1790396
0001c0 3a c0 8d 3e 98 86 26 be b2 33 b2 be b3 02 e5 3d
       0.2768572 -0.16262281 -0.34805065 0.111821555
0001d0 4b ef 1d be 31 61 8f be c7 22 40 3e c5 b4 60 be
       -0.15423314 -0.2800384 0.18763267 -0.21943958
0001e0 19 e5 89 3c 27 44 bc bd 52 4c 6e 3e 49 81 1a be
       0.016832875 -0.091926865 0.23271301 -0.15088381
0001f0 29 08 93 be ab 29 f9 bd f2 d3 fc bd 8a 99 05 3e
       -0.28717163 -0.12166151 -0.12345113 0.13046852
000200 4a b8 c4 be 89 38 a5 3d 4d aa 4e 3d 4f eb d5 be
       -0.3842185 0.08067424 0.05045538 -0.4178109
000210 62 e9 d2 be f0 6f 5a be 41 3a e2 3e ac 59 1f bd
       -0.41193682 -0.21331763 0.4418507 -0.038903877
000220 40 f0 b3 bd 9e 81 c2 3e cb 19 de be 9a 46 3b be
       -0.087860584 0.37989515 -0.43379053 -0.18288651
000230 62 da 23 be 8f 9a 7a be ae 8a e0 bd 06 85 d2 3d
       -0.16001275 -0.24473022 -0.10963951 0.102792785
000240 8c 14 b6 bd 21 16 8e 3e 21 59 87 be 74 d4 19 3e
       -0.08890638 0.27751258 -0.26435187 0.1502245
000250 9e fd f8 3d e0 ae 88 bc 7e ec 3f bf 21 00 62 3d
       0.12157749 -0.01668495 -0.74970233 0.055175904
000260 be 0e d4 be dc 91 96 be 28 98 12 bf d7 6c 1d bd
       -0.41417497 -0.29408157 -0.5726342 -0.038433876
000270 df 67 cc be b3 66 3c 3e 15 86 6b be 3f 08 5c be
       -0.39922997 0.18398552 -0.23000367 -0.2148752
000280 ca 04 85 3e 94 e4 02 be 39 93 d6 bc a0 92 50 3e
       0.25980216 -0.12782508 -0.026193248 0.20368433
000290 e1 18 66 3d 2e 18 f1 bd 63 03 bb 3d a3 c4 98 3e
       0.05617607 -0.1177219 0.09131505 0.29837522
0002a0 2d 56 0e 3f d9 03 38 3d 89 5a 22 3e 07 78 17 3f
       0.55600244 0.044925544 0.15854849 0.5916752
0002b0 9d c3 32 3f 3f a0 51 3e 56 b3 c9 3c 6a 95 d6 be
       0.6982973 0.20471285 0.024621647 -0.4191087
0002c0 00 71 2f 3e fb 88 ed bd 38 64 72 bc 49 bc d1 be
       0.1713295 -0.115983926 -0.014794402 -0.40963963
0002d0 b3 1f 8e be 2d c6 5f 3e 2f b5 3e bd db d6 ea be
       -0.2775856 0.21852942 -0.04655951 -0.45867047
0002e0 48 28 ec bc b9 60 2e be eb 07 93 3e 43 2b 06 be
       -0.028827801 -0.17029084 0.28716978 -0.1310244
0002f0 5b a4 02 bf cf 78 0d 3e fd 81 18 3e 19 d7 2a bd
       -0.51032037 0.13815616 0.14893337 -0.04170904
000300 60 8f 54 bc eb 98 fd bd da 16 bf 3e 95 e5 b1 be
       -0.012973636 -0.123826824 0.37322122 -0.3474547
000310 0f 34 3c 3f 4a c8 af 3e c6 59 5f 3b a3 27 a6 3e
       0.73516935 0.34332496 0.0034080609 0.32452115
000320 46 50 26 3e 7a 42 de bd 6e 7a 96 bd 78 23 ad 3e
       0.1624156 -0.10852523 -0.0734757 0.33816123
000330 4c 78 2c bf 3c d6 43 be 4d a9 25 be 24 e1 a7 bd
       -0.6737106 -0.19124693 -0.16177864 -0.08197239
000340 fe 6b bc bd 54 c6 5c 3d f1 7b c1 bd 8e 18 3c 3d
       -0.092002854 0.053900078 -0.09447468 0.045921855
000350 88 93 3b be b5 cc 81 bd 38 88 b1 3d 69 1a e7 3e
       -0.18317997 -0.06337873 0.0866856 0.45137337
000360 64 0b 92 3e c5 8b 92 bd 20 02 a5 be d7 97 f7 bd
       0.28524315 -0.07155565 -0.32228184 -0.12089508
000370 9d 13 57 be b9 4b 05 3e f6 c3 5e bd 0b f9 e5 bc
       -0.21003576 0.13017167 -0.0543861 -0.028072855
000380 4b f3 49 bd a6 f6 34 be b6 a3 89 bd d0 3c 8c 3e
       -0.049304288 -0.17672214 -0.067206785 0.27390146
000390 37 fa dd 3d 7f 01 1e 3e e2 40 80 be cd ea 1b be
       0.1083874 0.15430258 -0.25049502 -0.15226288
0003a0 85 e3 41 be 28 1c e1 bd 7c 7c 15 be 52 5d f3 be
       -0.18934448 -0.109916985 -0.14598268 -0.47532135
0003b0 69 52 29 3f e4 60 bd 3e 88 3a d0 be ff 69 4e 3e
       0.6614137 0.36987984 -0.40669656 0.20157622
0003c0 7f 7a a9 be af a9 12 3d d0 6a cd 3e f5 d9 fd bd
       -0.3310127 0.035806354 0.40120554 -0.12395088
0003d0 8f b5 72 3e b2 68 8d 3e be 06 a4 bd 6e 8b 64 3d
       0.23702072 0.2761894 -0.080090985 0.055797033
0003e0 3a 72 0a be 26 27 05 3e ef 93 0c be 74 19 41 3e
       -0.13520136 0.13003215 -0.13728307 0.18857366
0003f0 8c b5 86 3e 92 e1 4a 3c ae 38 32 3e 2b c1 c6 bd
       0.26310384 0.012382882 0.17404434 -0.097048126

bias f4 [2]
000000 d6 23 bd 3d 1d 15 40 be
       0.09235351 -0.18758054
